lunarlander/lunarlander_dqn.pth (torch, 75416 bytes, 6 tensors)

layer1.weight f4 [128, 8]
0	0x3db13339	0.08652348
1	0x3ea64197	0.32471916
2	0xbec2964a	-0.38005286
3	0x3f4b8b23	0.7950918
4	0xbe284173	-0.16431217
5	0xbc18aa46	-0.00931794
6	0x3f254ce1	0.6457043
7	0xbc8ebc8e	-0.017423894
8	0xbf5417ab	-0.82848614
9	0x3e7c979d	0.24667211
10	0xbf7ebc9f	-0.9950656
11	0x3d4183dc	0.04724489
12	0x3d58f79f	0.052970525
13	0xbeb209c7	-0.34773085
14	0x3ef038d4	0.46918356
15	0x3eb8f002	0.3612061
16	0xbe1b2c20	-0.15153551
17	0x3c95989d	0.018261248
18	0x3e294cd7	0.16533218
19	0xbd0697fc	-0.032859787
20	0xbf543cd3	-0.8290531
21	0x3bd857d3	0.0066022663
22	0x3dabb39f	0.083838694
23	0x3e705fcb	0.23474042
24	0x3eae98c6	0.34100932
25	0xbdb201ec	-0.08691773
26	0x3e0792ca	0.1323959
27	0x3d17b915	0.037041742
28	0x3e97c52b	0.29642615
29	0x3f273347	0.6531262
30	0x3f2e6e41	0.68136984
31	0xbf511783	-0.816765
32	0xbee2f4aa	-0.4432729
33	0xbe8bb70c	-0.2728809
34	0x3d114fe0	0.035476565
35	0x3e96d137	0.29456493
36	0xbee85d29	-0.45383576
37	0x3e8c06b7	0.27348873
38	0x3ee7490d	0.4517292
39	0xbf0d435e	-0.5518092
40	0xbe36b09d	-0.1784081
41	0xbd1246f0	-0.035712183
42	0xbf5a0100	-0.85157776
43	0xbf7f6008	-0.9975591
44	0x3d4d71c5	0.050157327
45	0xbe4aa365	-0.19788893
46	0xbee369f1	-0.44416764
47	0xbe86c410	-0.2632146
48	0x3ef4e644	0.4783193
49	0xbc961415	-0.018320123
50	0x3e30a176	0.17249092
51	0xbf1c04bc	-0.60944724
52	0x3eee0b7e	0.46493143
53	0x3f0acb89	0.5421682
54	0xbe90e36b	-0.28298506
55	0x3c434579	0.011918419
56	0xbdde8e34	-0.10866967
57	0x3cff16be	0.031138774
58	0x3f83aaa9	1.0286456
59	0xbf4cb117	-0.7995772
60	0x3ec8570e	0.39128917
61	0xbebf70d2	-0.37390763
62	0xbe364b9d	-0.17802282
63	0x3e098aa0	0.13431787
64	0xbe6232b1	-0.2208965
65	0xbea7acc4	-0.32748997
66	0xbf15246f	-0.5825872
67	0xbe6fce8e	-0.23418638
68	0x3cb3372c	0.021876894
69	0xbed6b673	-0.41936073
70	0x3ba9bcef	0.0051799933
71	0xbbc90de9	-0.0061356914
72	0x3e25ff91	0.16210772
73	0xbe250458	-0.16114938
74	0x3e8b79d5	0.27241388
75	0xbe7c918d	-0.24664898
76	0xbe93d4cb	-0.28873286
77	0xbf113c54	-0.5673268
78	0xbf8f74da	-1.1207535
79	0xbf014efd	-0.5051115
80	0xbd2409be	-0.040048353
81	0xbe36be9d	-0.1784615
82	0x3e861902	0.26190954
83	0x3f2aaac7	0.66666836
84	0xbf24b05e	-0.64331615
85	0xbe1abde8	-0.15111506
86	0x3eee5e23	0.46556196
87	0x3ea8c1ba	0.32960302
88	0xbbd0e621	-0.0063750898
89	0xbeeee73d	-0.46660796
90	0xbf0007af	-0.50011724
91	0xbde8ff6e	-0.11376844
92	0x3ee19115	0.44056
93	0xbe73b9dc	-0.23801368
94	0x3dd6cb13	0.10487952
95	0xbe56d622	-0.20980123
96	0x3e9fbbe7	0.31198046
97	0xbdd3e8ff	-0.10347175
98	0xbdd86d6f	-0.10567748
99	0xbf351c4a	-0.7074629
100	0xbe9941fe	-0.2993316
101	0x3eee7537	0.46573803
102	0x3f0fff60	0.56249046
103	0xbe66112d	-0.2246749
104	0x3e601490	0.21882844
105	0x3e34f9f8	0.1767348
106	0xbe41a734	-0.18911439
107	0xbde3e30d	-0.11127291
108	0xbe8177f6	-0.25286835
109	0x3e55856a	0.20851675
110	0x3d94c1a2	0.07263495
111	0x3cf1cb00	0.029515743
112	0xbe8297bc	-0.2550639
113	0xbce9ccb7	-0.028539998
114	0x3ea8fa2b	0.33003363
115	0xbd8beba0	-0.06832051
116	0x3d81d1ed	0.06338868
117	0x3f3f0dc4	0.7463038
118	0x3dcb660c	0.09931573
119	0xbf5f1459	-0.87140423
120	0x3f2c9eca	0.6742979
121	0x3e0a9a8c	0.13535517
122	0x3eaf46d7	0.34233734
123	0x3d95d592	0.07316126
124	0xbdb79348	-0.089636385
125	0xbe245161	-0.16046669
126	0xbf686d92	-0.9079219
127	0xbe0018a3	-0.12509398
128	0x3f654606	0.8955997
129	0x3eb0c806	0.34527606
130	0xbeb6c7e8	-0.3569939
131	0xbf128ab0	-0.5724287
132	0x3f1ded84	0.61690545
133	0x3e16b21d	0.14716382
134	0xbea63848	-0.32464814
135	0x3e66a255	0.22522862
136	0x3e3fa506	0.18715295
137	0x3ed2522f	0.41078326
138	0xbf2aedbb	-0.66769
139	0xbefb3a21	-0.49067786
140	0x3d892117	0.066957645
141	0xbf35377e	-0.707878
142	0xbe9b2dcf	-0.30308387
143	0x3e117dff	0.1420822
144	0xbe037da7	-0.12840901
145	0xbf81cf90	-1.0141468
146	0x3ed0e7ff	0.40802
147	0x3ef09674	0.46989787
148	0xbec92fe2	-0.39294344
149	0x3e822065	0.2541534
150	0x3f0655ea	0.52474844
151	0xbcb3fa20	-0.021969855
152	0x3d8dca7f	0.06923389
153	0x3e9a4d78	0.3013723
154	0x3db9fe9a	0.090817645
155	0x3f83ea23	1.0305828
156	0xbea7436a	-0.3266862
157	0xbe8decd9	-0.27719763
158	0x3dee3721	0.11631609
159	0xbc138c54	-0.009005625
160	0x3e3d5328	0.18488753
161	0x3ec95543	0.39322862
162	0xbf45abf4	-0.77215505
163	0xbdcb3b8e	-0.099234685
164	0x3ef7fa54	0.48433173
165	0xbed20a53	-0.41023502
166	0xbf56258f	-0.8365106
167	0x3e120539	0.14259805
168	0x3e6c8a4b	0.2309963
169	0xbe38f400	-0.18061829
170	0x3f0b4884	0.54407525
171	0x3ebbfb3f	0.36715123
172	0xbe921e97	-0.28538963
173	0x3e78d383	0.24299435
174	0x3ee759e5	0.45185772
175	0xbea21a67	-0.31660768
176	0x3e859915	0.26093355
177	0xbd838a9b	-0.06422921
178	0xbf0c66dd	-0.54844457
179	0xbdb5a7bd	-0.08869884
180	0x3f73db7d	0.9525679
181	0xbe4fd7fc	-0.20297235
182	0xbf49ed3a	-0.78877604
183	0xbd15f4a2	-0.036610253
184	0x3e84aa85	0.25911346
185	0x3e981c88	0.29709268
186	0x3f47f0a6	0.78101575
187	0x3e0428a7	0.12906133
188	0xbed46b8e	-0.41488308
189	0x3df5b4e3	0.11997392
190	0xbf624f84	-0.8840258
191	0xbf2891e3	-0.65847605
192	0x3e412b72	0.1886423
193	0x3e905406	0.28189105
194	0x3ea00c8a	0.31259567
195	0x3dc5b3ba	0.09653421
196	0xbea8efe4	-0.32995522
197	0xbe8c0b92	-0.27352577
198	0xbf6e19ce	-0.93008125
199	0xbec9fa4d	-0.39448777
200	0x3ec5ed10	0.38657427
201	0x3e7f9a74	0.24961263
202	0xbf5a397c	-0.85243964
203	0xbf1f2482	-0.6216508
204	0x3db2899a	0.08717652
205	0xbf0a0971	-0.53920656
206	0xbedb2dec	-0.42808473
207	0x3efc2f0f	0.49254653
208	0xbdc1bd18	-0.09459895
209	0x3e1df9d4	0.15427333
210	0xbf4a6b5f	-0.79070085
211	0x3f219eb1	0.6313277
212	0xbf05f55e	-0.52327526
213	0x3e98d3e2	0.29849154
214	0x3f09cf11	0.53831583
215	0x3f2917ff	0.6605224
216	0xbdfe1d4c	-0.12407932
217	0x3df6078c	0.12013158
218	0x3f19e44e	0.6011399
219	0xbd9a3bd8	-0.075309455
220	0xbee46e88	-0.4461558
221	0x3e1b30e2	0.15155366
222	0xbf3fa18c	-0.74855876
223	0x3edad4a1	0.42740348
224	0x3e5eae2a	0.21746126
225	0xbe0d70fc	-0.13812631
226	0x3e16f919	0.1474346
227	0xbc9fe4e9	-0.019518333
228	0xbd4ea166	-0.05044689
229	0x3f2ebbe9	0.6825548
230	0x3f0f96a7	0.5608925
231	0xbf32433d	-0.6963385
232	0x3dc02e1d	0.093837954
233	0x3e69bfca	0.22827068
234	0x3f23f05f	0.6403865
235	0xbee9937b	-0.4562033
236	0xbf024cf2	-0.5089866
237	0x3ea764fc	0.32694232
238	0xbe441dba	-0.19151965
239	0xbe87d06e	-0.26526207
240	0x3e98bccb	0.29831538
241	0x3e180d2f	0.14848779
242	0x3e553693	0.208216
243	0x3e59954c	0.21248358
244	0x3ee4c77f	0.44683453
245	0x3ebe421e	0.37159818
246	0x3f0cba00	0.54971313
247	0x3f05a27d	0.5220106
248	0x3e552097	0.20813213
249	0x3cd258f7	0.025677187
250	0x3e812775	0.25225416
251	0x3ed4d507	0.41568777
252	0xbf8e6068	-1.1123171
253	0x3d424f26	0.047438763
254	0x3e9aeedb	0.30260357
255	0xbe11d8b2	-0.14242819

layer1.bias f4 [128]
0	0x3ebc1b5e	0.3673963
1	0xbd6c116b	-0.0576338
2	0xbd46fbd8	-0.04858002
3	0x3e070533	0.13185577
4	0x3e91a779	0.28448084
5	0x3ee403c7	0.44534132
6	0x3ebd7690	0.37004519
7	0xbca7e00a	-0.020492572
8	0xbb53efa8	-0.0032338891
9	0x3d7f586a	0.062340178
10	0x3e8d6fe9	0.27624443
11	0x3e9b7f38	0.30370498
12	0x3f02c0f6	0.51075685
13	0x3ee91c65	0.45529476
14	0x3e39fb46	0.1816226
15	0xbc82cabe	-0.015965816
16	0xbb2f8f13	-0.002678816
17	0xbb36edcb	-0.0027912732
18	0xbdfdb9be	-0.12388943
19	0x3dc77ef0	0.09741008
20	0x3e859938	0.2609346
21	0x3ec60c9a	0.3868149
22	0x3ea0b596	0.3138854
23	0xbb65f43b	-0.00350882
24	0xbcadab64	-0.02119989
25	0x3dbf1432	0.09330024
26	0xbe646f99	-0.22308196
27	0xbdf9f993	-0.12205806
28	0x3e44e3f3	0.1922758
29	0x3eb7fe94	0.35936415
30	0xbe9fbde3	-0.3119956
31	0x3c644dc4	0.013934556
32	0x3e996bc4	0.2996503
33	0x3e8a3f88	0.27001595
34	0xbcd9a172	-0.026566241
35	0xbd095ebc	-0.03353761
36	0x3ea3bb23	0.3197871
37	0x3e1b39d8	0.15158784
38	0x3e8f37b2	0.2797218
39	0x3e7c8704	0.2466088
40	0x3e388327	0.1801878
41	0xbe98e0cc	-0.29859006
42	0xbbfd395b	-0.0077277846
43	0xbd9b8a89	-0.07594783
44	0x3c984ae5	0.0185904
45	0xbe1fa6e0	-0.15591002
46	0xbe5e6c51	-0.21721007
47	0xbe943501	-0.2894669
48	0xbe633caa	-0.2219111
49	0xbddf7f27	-0.10912924
50	0x3e504d01	0.20341875
51	0xbeaad206	-0.3336336
52	0x3eed9216	0.46400517
53	0x3db43847	0.087997966
54	0xbdb91207	-0.090366416
55	0x3ebcacb0	0.368505
56	0x3d13221b	0.035921197
57	0x3daadbfa	0.083427384
58	0xbeba13e2	-0.36343294
59	0xbe070bb1	-0.13188054
60	0x3dc8d86b	0.098069035
61	0x3e578273	0.21045856
62	0x3e20c487	0.15699969
63	0x3e9b7e19	0.30369642
64	0xba9f6666	-0.0012161254
65	0xbdc98e81	-0.098416336
66	0x3ed89dc9	0.4230788
67	0x3e3efb72	0.18650606
68	0xbc68a289	-0.014198908
69	0xbd92fbb4	-0.07176915
70	0x3ea44485	0.32083526
71	0x3d590cea	0.05299083
72	0x3d9bacf6	0.07601349
73	0xbea38535	-0.31937566
74	0x3ed48354	0.41506445
75	0xbe51bf1f	-0.20483063
76	0x3e84a5bb	0.25907692
77	0x3d86c0ff	0.0657978
78	0x3ec235eb	0.3793176
79	0x3eaa3592	0.33243996
80	0x3e0f12b1	0.13971974
81	0xbe5dba73	-0.21653156
82	0x3e8df2ff	0.27724454
83	0xbe11d889	-0.14242758
84	0x3e1b453c	0.1516313
85	0xbc495b20	-0.012289792
86	0x3e938df0	0.28819227
87	0xbdee0023	-0.1162112
88	0xba8e8e2f	-0.0010876114
89	0x3da28899	0.0793621
90	0xbdffdb58	-0.124930084
91	0xbe4ac64a	-0.19802204
92	0xbee5d169	-0.4488633
93	0x3ec98baf	0.39364383
94	0x3d616fd6	0.055038296
95	0x3b7d198c	0.0038619963
96	0x3e827693	0.2548109
97	0x3e31cdab	0.17363612
98	0x3b2cd2e1	0.002637081
99	0xbe9cbc4d	-0.30612412
100	0x3e4a4dab	0.1975619
101	0xbe44eb5c	-0.19230407
102	0xbe58df81	-0.2117901
103	0x3e728fec	0.23687714
104	0x3ebbbe81	0.3666878
105	0x3d56560f	0.052328166
106	0x3e82d581	0.25553516
107	0xbd986ea0	-0.07442975
108	0x3d30eaf4	0.04319282
109	0xbe7337c7	-0.23751746
110	0x3d199c64	0.03750266
111	0x3e7c8ff9	0.24664296
112	0x3effa849	0.4993308
113	0x3ec4b81a	0.38421708
114	0x3e960149	0.29297855
115	0x3edf1329	0.43569306
116	0x3e09c746	0.13454923
117	0xbe4c2fbc	-0.19940084
118	0xbdde0182	-0.10840131
119	0x3e9a1e29	0.30101135
120	0x3ed17e37	0.40916607
121	0xbe5861c8	-0.2113105
122	0xbe86324b	-0.26210245
123	0x3e8576d5	0.26067224
124	0x3e512a2c	0.20426244
125	0x3eb2254a	0.34794074
126	0x3e5f76de	0.21822688
127	0x3dd37c33	0.103264235

layer2.weight f4 [128, 128]
0	0xbd03c57c	-0.032170758
1	0x3d854d7d	0.0650892
2	0xbe04d7d7	-0.12972961
3	0x3e98cdfe	0.2984466
4	0xbdd69b1d	-0.10478804
5	0x3e1bea15	0.15226014
6	0x3da16807	0.0788117
7	0xbeee2a4f	-0.46516654
8	0x3e3f05fc	0.18654627
9	0x3e61f0d0	0.22064519
10	0x3cad4ee5	0.021155784
11	0xbe01a1e9	-0.1265942
12	0x3db8ad46	0.09017424
13	0x3d4d945f	0.050190326
14	0x3e67c3f7	0.22633348
15	0x3e2dc47a	0.16969481
16	0xbd1e1d9f	-0.038602468
17	0xbb20280c	-0.0024437932
18	0xbe2c7198	-0.16840208
19	0x3e0e79c6	0.1391364
20	0xbd9361e2	-0.07196404
21	0xbdb2b903	-0.087266944
22	0xbe613211	-0.21991755
23	0x3e1338a5	0.14377077
24	0x3e5472f3	0.20746975
25	0x3cdc11a1	0.026863875
26	0xbf0ef2ee	-0.5583943
27	0x3e4e905c	0.20172256
28	0x3ea87a45	0.32905784
29	0x3b8a5930	0.0042220578
30	0xbf8c6262	-1.0967524
31	0xbdfd4372	-0.1236638
32	0x3d174b71	0.03693718
33	0xbea3a12d	-0.31958905
34	0xbf0e00ef	-0.55470175
35	0x3dfe6d51	0.12423194
36	0x3e2fea6c	0.17179269
37	0x3d8dbe8d	0.0692111
38	0x3f047427	0.51739734
39	0x3de8f177	0.11374181
40	0x3ca2a195	0.019852439
41	0x3da4fc67	0.080559544
42	0xbe98f1d8	-0.29872012
43	0xbe54f2ad	-0.20795698
44	0x3cee86dc	0.02911704
45	0x3ea66527	0.32499048
46	0x3c6b3bac	0.014357489
47	0xbf1167ec	-0.567992
48	0xbef21510	-0.47281694
49	0x3f110656	0.5665029
50	0x3e1156ed	0.14193316
51	0x3ea15d96	0.31516713
52	0x3d9cbff9	0.076538034
53	0xbc437cc5	-0.011931603
54	0xbeba386a	-0.36371166
55	0xbd51c498	-0.051212877
56	0x3d963d3e	0.073359
57	0x3eda6891	0.42657903
58	0xbeb5cf0e	-0.35509533
59	0x3e8cb327	0.27480432
60	0x3e190cd9	0.14946307
61	0x3e194e88	0.14971364
62	0x3d1d9b49	0.03847817
63	0x3e034586	0.1281949
64	0x3d5d89d7	0.054086532
65	0x3f1868f6	0.5953516
66	0xbd1c4129	-0.03814808
67	0x3e3c5456	0.18391547
68	0xbe0efa8e	-0.13962767
69	0xbe94c719	-0.2905815
70	0x3bc81fe8	0.006107319
71	0x3e640ac5	0.22269733
72	0x3da60004	0.08105472
73	0xbd2bc676	-0.041937314
74	0xbdbb972e	-0.091596946
75	0xbf20f85b	-0.6287896
76	0x3d607f5c	0.05480896
77	0xbdf51282	-0.11966421
78	0xbbeb1c3f	-0.007174998
79	0x3ef24c30	0.4732375
80	0x3e64cdb9	0.22344102
81	0xbedb809d	-0.42871562
82	0xbc820478	-0.015871271
83	0xbdd5acf6	-0.1043338
84	0x3e0a9461	0.13533165
85	0xbf6b4110	-0.9189615
86	0x3ecd5e15	0.4011084
87	0x3ed2b03e	0.41150087
88	0xbf2c5d2e	-0.6732968
89	0x3ed474e7	0.4149544
90	0x3e3d07ca	0.18460003
91	0x3e183173	0.14862613
92	0xbd189dde	-0.03725993
93	0x3db62c3b	0.08895155
94	0x3dc588f5	0.09645263
95	0xbebd8ced	-0.3702158
96	0xbaabe884	-0.001311556
97	0x3f0f65fb	0.56014985
98	0xbd4f5c84	-0.05062534
99	0x3e1b7596	0.15181574
100	0x3d91dfa4	0.07122734
101	0x3e4b5a70	0.19858718
102	0xbe368095	-0.17822488
103	0xbd52f42b	-0.051502388
104	0xbd442731	-0.04788894
105	0xbcfabd68	-0.030607894
106	0x3d280df2	0.041028924
107	0xbf109192	-0.5647212
108	0xbbdd6f4c	-0.0067576524
109	0x3e8c38e8	0.27387166
110	0xbe2acfde	-0.16680858
111	0xbaedd24a	-0.0018144336
112	0x3d99ffb7	0.07519477
113	0x3c948a53	0.018132364
114	0x3ea30bd2	0.31844956
115	0xbb1ccc4c	-0.0023925481
116	0x3d3c3a60	0.04595411
117	0x3e8c34f6	0.27384156
118	0x3ee70ed1	0.45128492
119	0x3eb13664	0.3461181
120	0x3b13eb79	0.0022570773
121	0x3e50a4f4	0.20375425
122	0x3e99b3e3	0.30020055
123	0xbcf30ffe	-0.029670712
124	0x3cbb871f	0.02289158
125	0x3e19e581	0.15028955
126	0xbccd985c	-0.025097065
127	0xbaecdd8a	-0.0018071395
128	0x3dd52fb5	0.1040949
129	0xbe5b3209	-0.21405806
130	0x3e1be340	0.15223408
131	0x3d1d8d5b	0.038464885
132	0x3eacd147	0.33753416
133	0xbf8696dd	-1.051479
134	0xb8b2181a	-8.492191e-05
135	0x3ecde113	0.4021078
136	0xbd6b1cc7	-0.05740049
137	0xbe0c5744	-0.13705164
138	0x3eb34de8	0.35020375
139	0x3d8b3286	0.06796746
140	0xbe33557a	-0.17513075
141	0x3d0692c0	0.032854795
142	0x3e53576c	0.20638818
143	0xbcf0eab8	-0.029408798
144	0xbd865bb0	-0.06560457
145	0xbed9bc0e	-0.42526287
146	0x3e104e8b	0.14092462
147	0x3ef6e4d8	0.4822147
148	0x3d85ca7e	0.06532763
149	0x3e961f6c	0.29320848
150	0x3dd0e3e4	0.10199717
151	0x3eae3a32	0.34028774
152	0x3e989ac3	0.29805574
153	0xbf056071	-0.5210028
154	0x3e2fa5de	0.17153117
155	0x3e7da05d	0.24768205
156	0x3e0bfe8d	0.13671322
157	0x3d85c970	0.06532562
158	0x3f79ef5d	0.97630864
159	0x3ea55bc2	0.32296568
160	0x3cd56883	0.026050812
161	0x3f02bfff	0.5107421
162	0x3e241175	0.16022284
163	0x3e44d076	0.19220147
164	0x3df40e28	0.119167626
165	0x3ea558ea	0.322944
166	0xbe87f0a0	-0.2655077
167	0x3ef09d0b	0.46994814
168	0xbe830649	-0.25590733
169	0xbe6bc68d	-0.2302496
170	0x3e9a13f7	0.30093357
171	0xbe6633db	-0.22480719
172	0xbf5a55ce	-0.8528718
173	0x3eb147b0	0.34625006
174	0xbbf31734	-0.0074185375
175	0x3f02b8b0	0.5106306
176	0x3ee8619f	0.4538698
177	0x3ca662e1	0.020310821
178	0x3ec6bc27	0.38815424
179	0xbad60802	-0.0016329291
180	0xbeaf9a1c	-0.34297264
181	0x3e270678	0.16311061
182	0x3e69e41e	0.22840926
183	0x3e0d78c0	0.13815594
184	0x3d7d0f03	0.061781894
185	0x3d65c5c7	0.05609682
186	0x3efe4d5f	0.49668404
187	0xbe29b483	-0.16572766
188	0x3ee35bdc	0.4440602
189	0xbcd4d3a8	-0.025979832
190	0xbc0158b7	-0.007894686
191	0xbe16279e	-0.1466355
192	0x3e6ed42f	0.23323129
193	0xbe8932dc	-0.26796615
194	0xbd0fcce0	-0.035107493
195	0x3e44bdf1	0.19213082
196	0xbe812e37	-0.25230572
197	0x3e9a3847	0.3012106
198	0xbc01a0f7	-0.007911912
199	0x3e7f42b3	0.24927787
200	0x3ed02381	0.40652087
201	0x3e195efe	0.14977643
202	0xbcfba0b0	-0.03071627
203	0xbcb8007a	-0.022461165
204	0x3ce8363f	0.028346179
205	0xbe557f83	-0.20849423
206	0x3e6473a2	0.22309735
207	0x3e560341	0.20899679
208	0xbe48a162	-0.19592813
209	0x3cedb15d	0.029015237
210	0x3d193d4e	0.03741198
211	0x3e6048bd	0.21902747
212	0xbd89f2c4	-0.06735757
213	0x3f5045b0	0.81356335
214	0xbcc9ac3d	-0.024618262
215	0xbdb6fc01	-0.08934785
216	0x3eaff575	0.34366956
217	0xbdfb633c	-0.12274787
218	0xbde979e7	-0.11400204
219	0x3d683166	0.056687735
220	0xbe2a9676	-0.16658959
221	0x3bc66b7c	0.0060552936
222	0x3e357c26	0.1772314
223	0xbf200602	-0.6250917
224	0xbb45231f	-0.0030080748
225	0xbef06111	-0.46949056
226	0xbeccecbb	-0.4002436
227	0x3e8c505f	0.27405068
228	0xbc246aad	-0.010035199
229	0x3da9220a	0.082584456
230	0xbdff7e42	-0.12475254
231	0xbdcf3f02	-0.1011944
232	0x3d070c62	0.032970794
233	0x3ddb267c	0.107007
234	0x3e119ca0	0.14219904
235	0x3eb2df69	0.34936073
236	0xbf24a5f3	-0.6431572
237	0xbd8c968a	-0.068646505
238	0x3e4d52d8	0.20051134
239	0xbe6b97fe	-0.23007199
240	0xbe252d26	-0.16130504
241	0xbe0621d5	-0.13098843
242	0x3eda0708	0.4258349
243	0xbe214cb7	-0.1575192
244	0x3ec682c6	0.38771647
245	0x3ec02e6f	0.37535426
246	0x3e1ac89e	0.15115592
247	0x3e684eb1	0.22686268
248	0xbe125d58	-0.1429342
249	0x3e81175d	0.25213137
250	0x3eec7fa9	0.46191147
251	0xbdfd8128	-0.1237815
252	0x3d676333	0.056491088
253	0xbd528bd7	-0.051402893
254	0xbe1aa30b	-0.15101258
255	0x3d2d1d4b	0.042264264

layer2.bias f4 [128]
0	0x3ca78bc2	0.020452384
1	0x3aff361c	0.0019471082
2	0x3d978061	0.07397533
3	0xbd60b6cb	-0.054861825
4	0x3e2c1194	0.1680358
5	0x3e43acf5	0.19108947
6	0xbd9a7a0b	-0.07542809
7	0x3d9e85f7	0.077403955
8	0xbd8a7bd9	-0.06761903
9	0xbd5d6533	-0.05405159
10	0xbd693d19	-0.056943033
11	0x3b9e445d	0.004829927
12	0x3cca7488	0.02471377
13	0x3defdbd3	0.1171185
14	0xbcc9102c	-0.024543844
15	0x3da39625	0.07987622
16	0x3cfee123	0.031113213
17	0x3d3db542	0.04631544
18	0x3cb3a727	0.02193029
19	0x3d5d3d04	0.054013267
20	0x3cd44ecf	0.025916485
21	0x3cb0e874	0.021595217
22	0x3df10d30	0.117700934
23	0xbcd911ae	-0.026497688
24	0x3d2a9892	0.04164941
25	0x3d37eeb4	0.04490538
26	0x3df3b7e8	0.11900312
27	0x3d98ad92	0.07454981
28	0x3de74387	0.11292177
29	0xbc7cd2e3	-0.015431139
30	0x3cd6b5a9	0.02620967
31	0x3d911a7b	0.07085129
32	0x3d891972	0.066943064
33	0x3e387957	0.18015037
34	0x3e22b127	0.15887891
35	0x3e4bfb3e	0.1992006
36	0x3d96eeae	0.07369743
37	0x3e3750f1	0.1790197
38	0x3d2ab332	0.0416748
39	0xbd5cd8b5	-0.053917605
40	0x3dc0bbed	0.09410844
41	0x3c9a0ee4	0.018805929
42	0x3c3a215d	0.0113604935
43	0x3d1301a5	0.03589024
44	0x3df079d7	0.11741989
45	0x3e13b436	0.14424214
46	0xbda9718f	-0.08273613
47	0xbc513f6d	-0.01277147
48	0xbd26c70a	-0.040717162
49	0x3e0dcce5	0.13847692
50	0x3b19cb5e	0.0023467164
51	0x3e4f8481	0.2026539
52	0x3d7d3e47	0.06182697
53	0x3cb23e1c	0.021758132
54	0x3c4f45d6	0.0126509275
55	0x3da34c4c	0.07973537
56	0x3b2419c9	0.0025039783
57	0x3d082f1f	0.033248063
58	0x3bef83cb	0.007309412
59	0x3dc8e05d	0.09808419
60	0x3db7690a	0.089555815
61	0x3dfeb562	0.1243694
62	0x3e019171	0.12653138
63	0x3d91a702	0.07111932
64	0x3e01fa22	0.12693074
65	0xbc008731	-0.007844732
66	0x3d307c2a	0.043087162
67	0xbd262ed5	-0.040572006
68	0x3d9b0478	0.07569212
69	0x3d7d5944	0.06185271
70	0x3e1f009d	0.15527578
71	0xba9eb6f6	-0.001210897
72	0x3e27a7b2	0.16372564
73	0x3e32631c	0.1742062
74	0xbd6ab9ee	-0.057306223
75	0x3d639446	0.055561326
76	0xbd070a02	-0.03296853
77	0x3e2090cc	0.15680236
78	0x3ca8cdf8	0.020606026
79	0x3d2d1428	0.04225555
80	0xbdad8bbd	-0.084739186
81	0x3d9d8419	0.07691211
82	0x3c393fec	0.011306744
83	0xbcb0f717	-0.021602197
84	0xbdeabbb7	-0.11461585
85	0x3b5f58cd	0.003408003
86	0x3e00a9f8	0.12564838
87	0x3dded01c	0.108795375
88	0xbda5c91b	-0.080949984
89	0x3d8067e0	0.062698126
90	0x3d555cef	0.05209058
91	0x3b599470	0.0033200048
92	0x3df5a704	0.11994746
93	0xbd709e9f	-0.058745023
94	0x3d4da460	0.05020559
95	0xbdb07800	-0.08616638
96	0x3e09f7bb	0.13473408
97	0x3da3a5ed	0.07990632
98	0x3baf925f	0.005358025
99	0xbdaf69d1	-0.08565105
100	0xbd0bf017	-0.034164514
101	0xbd954d74	-0.07290164
102	0x3dc3a72a	0.095533684
103	0x3d363977	0.044488396
104	0x3d120263	0.035646807
105	0x3bb750db	0.0055943555
106	0x3cef958c	0.029246114
107	0x3d85140c	0.06497964
108	0x3bde45ee	0.0067832386
109	0x3c58ec76	0.01323997
110	0x3e2144ab	0.15748851
111	0x3d323bc3	0.043514024
112	0xbc2f53c6	-0.0107011255
113	0x3d9a5bd0	0.07537043
114	0x3d9de4ed	0.0770968
115	0x3c2bbfb9	0.010482722
116	0x3e2b3ab0	0.16721606
117	0x3e055ce8	0.13023722
118	0xbd950332	-0.07276
119	0x3da4e48e	0.08051406
120	0x3d30609a	0.043060876
121	0xbc60ba16	-0.013716241
122	0xbd0e0724	-0.03467478
123	0xbc329ffd	-0.010902402
124	0x3da2d1cd	0.079501726
125	0x3d76847a	0.060184933
126	0x3ca864e2	0.020555917
127	0x3d90659c	0.070506305

layer3.weight f4 [4, 128]
0	0xbec35e23	-0.38157758
1	0x3f6d83a8	0.92779016
2	0xbee9ed1b	-0.4568871
3	0xbf125238	-0.57156706
4	0x3ee030db	0.43787274
5	0x3f0ced81	0.550499
6	0xbb85d586	-0.004084292
7	0xbedc2059	-0.4299343
8	0xbc610db7	-0.01373618
9	0xbc64d6ab	-0.013967196
10	0xbed3c7c6	-0.41363353
11	0xbf1676b5	-0.5877488
12	0x3ca451e6	0.020058583
13	0xbed9c33f	-0.42531773
14	0x3ea8aa0c	0.32942235
15	0xbeb189bc	-0.34675395
16	0x3f1be687	0.6089863
17	0xbf026352	-0.509328
18	0xbefeb9e9	-0.49751213
19	0x3f4d7851	0.80261713
20	0x3ef952bc	0.48695934
21	0xbe583474	-0.2111376
22	0x3f13e257	0.5776724
23	0xbee79acd	-0.4523529
24	0xbee80b4a	-0.45321113
25	0xbf14cf46	-0.58128774
26	0xbee17e5a	-0.4404171
27	0x3eae8b2c	0.34090555
28	0xbeb124db	-0.3459843
29	0xbefb7f6f	-0.49120662
30	0xbecb2489	-0.39676312
31	0xbefadbf1	-0.48995927
32	0xbf0f0d93	-0.5588009
33	0x3ee819d5	0.45332208
34	0xbe21f768	-0.15817034
35	0xbf03a8c6	-0.514294
36	0x3f46d174	0.7766335
37	0x3d791533	0.060811233
38	0x3eac5404	0.3365785
39	0x3ee738c5	0.451605
40	0xbec913da	-0.39272958
41	0x3f0e81ff	0.5566711
42	0xbee6d3d0	-0.45083475
43	0x3f96e552	1.1788733
44	0x3d9ba0ca	0.075990275
45	0x3ead0e62	0.33800036
46	0xbd50f35a	-0.051013328
47	0x3c9c564d	0.01908412
48	0x3eb99615	0.36247316
49	0x3f4b1256	0.79324853
50	0xbecb600c	-0.39721715
51	0x3f11eaa5	0.56998664
52	0xbea60993	-0.3242918
53	0x3ebde85d	0.37091342
54	0xbf2f8a43	-0.68570346
55	0xbeb22b90	-0.3479886
56	0xbefc902c	-0.49328744
57	0x3d9628a5	0.07331971
58	0x3d0461fc	0.032320008
59	0x3edc0d85	0.42979065
60	0x3e813fdc	0.25244033
61	0x3f0d0912	0.55091965
62	0xbeaa4be8	-0.33261037
63	0xbf0a0223	-0.5390951
64	0x3edeb29e	0.4349565
65	0x3eec66c2	0.46172148
66	0x3fb075af	1.3785914
67	0x3d8ab2ab	0.067723595
68	0x3d9e9209	0.07742698
69	0xbef908ea	-0.48639613
70	0x3f0a8a28	0.5411706
71	0xbd851e3f	-0.064999096
72	0x3ed12e3e	0.40855592
73	0x3eddda63	0.43330678
74	0x3edfcac4	0.43709385
75	0xbe8ed51d	-0.27896968
76	0xbeb9257c	-0.3616141
77	0x3d025688	0.031820804
78	0xbecdc005	-0.40185562
79	0xbec4e7b8	-0.38458037
80	0xbd7661ec	-0.06015198
81	0x3eda7deb	0.42674193
82	0xbef0326c	-0.4691347
83	0x3ed0769b	0.4071549
84	0xbe895276	-0.26820725
85	0xbed0965d	-0.40739718
86	0xbd4153d4	-0.047199085
87	0x3e71908e	0.235903
88	0x3d438460	0.047733665
89	0xbee7ea76	-0.45296067
90	0x3f06b48f	0.5261926
91	0xbec51266	-0.384906
92	0xbe72e46c	-0.23719949
93	0xbe992705	-0.29912582
94	0x3ea1ec57	0.31625625
95	0xbf1d0f21	-0.6135121
96	0x3f2566f6	0.6461023
97	0xbed6b13e	-0.419321
98	0xbe95bb75	-0.2924458
99	0xbc9cc4b6	-0.019136768
100	0xbea7e934	-0.32795107
101	0xbd2ce402	-0.042209633
102	0x3f0f6d80	0.5602646
103	0xbec40a8e	-0.38289303
104	0xbecdf20c	-0.4022373
105	0x3f7a6c49	0.9782148
106	0xbee6bf3e	-0.4506778
107	0xbebea65c	-0.37236297
108	0xbe190525	-0.14943369
109	0xbee4c0fe	-0.4467849
110	0x3f185213	0.59500235
111	0xbebbd5ab	-0.36686453
112	0xbf0c8340	-0.5488777
113	0xbf07b358	-0.5300803
114	0xbe834a20	-0.2564249
115	0x3ef3d2d8	0.476218
116	0x3ee2bc7c	0.44284427
117	0x3ec776fc	0.38957965
118	0x3d8542f4	0.06506911
119	0xbead96e4	-0.33904183
120	0x3f10da14	0.5658276
121	0x3d37d287	0.04487851
122	0x3f0f0325	0.55864173
123	0x3e9c5cbe	0.30539507
124	0xbf073f1d	-0.5283068
125	0xbe653016	-0.22381625
126	0xbc021759	-0.007940137
127	0xbe48f9f2	-0.19626597
128	0xbec0c12b	-0.37647375
129	0x3f3ccf52	0.73753846
130	0xbf268815	-0.65051395
131	0xbf1f796d	-0.62294656
132	0x3effea2a	0.4998334
133	0x3f24d182	0.64382184
134	0xbbe30872	-0.006928497
135	0xbeb293f4	-0.34878504
136	0x3d8ba58d	0.06818686
137	0x3c263e5b	0.010146703
138	0xbed503fa	-0.41604596
139	0xbf17f9bf	-0.5936546
140	0xbc47579b	-0.012166883
141	0xbefa6273	-0.48903236
142	0x3e1719a7	0.1475588
143	0xbf0d0d78	-0.55098677
144	0x3f019058	0.50610876
145	0xbea1132b	-0.31459936
146	0xbf06393a	-0.5243107
147	0x3f22ed3f	0.6364326
148	0x3f04ac6f	0.5182561
149	0xbca33df3	-0.019927
150	0x3ee97d37	0.45603344
151	0xbe67d609	-0.22640242
152	0xbf0845e7	-0.5323166
153	0xbec52a54	-0.38508856
154	0xbf216c09	-0.63055474
155	0x3ec7d0bb	0.39026436
156	0xbdd48ef2	-0.10378827
157	0xbebf7375	-0.37392774
158	0xbedbd892	-0.42938668
159	0xbe832977	-0.25617573
160	0xbebb1367	-0.3653824
161	0x3e9f2af5	0.3108746
162	0x3cf63769	0.030055718
163	0xbebb9584	-0.3663751
164	0x3f10bac4	0.5653498
165	0xbeb418a5	-0.35175052
166	0x3f0b0710	0.5430765
167	0x3f38535d	0.720022
168	0xbeeb448f	-0.45950744
169	0x3f143fcf	0.57909864
170	0xbd6a6d81	-0.057233337
171	0x3ef33e97	0.4750869
172	0x3dae9305	0.085241355
173	0x3ef805aa	0.4844182
174	0x3a86f775	0.0010297137
175	0x3bb434d8	0.0054994635
176	0x3ed450a2	0.41467768
177	0x3f5338ee	0.8250874
178	0xbec217f7	-0.3790891
179	0x3ef56c52	0.47934204
180	0xbebb375c	-0.36565673
181	0x3e9f04e4	0.3105842
182	0xbe6a8f3b	-0.229062
183	0xbee17ce5	-0.440406
184	0xbeb73cf3	-0.35788688
185	0x3d72e4e1	0.059300307
186	0x3d538181	0.051637176
187	0x3ed25f5e	0.41088384
188	0x3ca85457	0.020548029
189	0x3eb61ad6	0.3556735
190	0xbec283a2	-0.37991053
191	0xbf05e36f	-0.5230016
192	0x3ec0b5ea	0.3763879
193	0x3eecc063	0.4624053
194	0x3f76cf72	0.96410286
195	0xbca3f941	-0.020016314
196	0x3e3a2645	0.18178661
197	0xbec30f90	-0.3809781
198	0x3f195d65	0.59908134
199	0xbd0d7e51	-0.034544293
200	0x3edfbe69	0.4369996
201	0x3ea37604	0.31925976
202	0x3f041c84	0.5160601
203	0xbe3b530e	-0.18293402
204	0xbee32388	-0.44363046
205	0x3d11a70b	0.035559695
206	0xbe64bd53	-0.22337846
207	0xbf11fa61	-0.5702267
208	0xbd4b0c4c	-0.049572274
209	0x3edf295d	0.43586245
210	0xbeebfafe	-0.4608993
211	0x3f10d12d	0.56569177
212	0x3d373088	0.044724017
213	0xbe7ba4fe	-0.24574658
214	0xbde5292d	-0.11189494
215	0x3f19db13	0.60099906
216	0x3d54469b	0.051825147
217	0xbec9fff3	-0.39453086
218	0x3ef34cd3	0.4751955
219	0xbed2632c	-0.41091287
220	0xbca26c4e	-0.019827034
221	0xbee248d8	-0.441962
222	0x3f190a79	0.59781605
223	0xbf212d6b	-0.6295993
224	0x3f14818d	0.5801018
225	0xbe8d7aee	-0.2763285
226	0xbed87d95	-0.4228331
227	0xbd9c55c8	-0.07633549
228	0xbdd595bd	-0.10428951
229	0xbe6022c0	-0.21888256
230	0x3ee5b02b	0.44860968
231	0xbf0e631e	-0.5561999
232	0xbe9ec47f	-0.3100929
233	0x3ed1544f	0.40884635
234	0xbed0a734	-0.40752566
235	0xbf4f6ae3	-0.8102247
236	0xbd7bb0c0	-0.06144786
237	0xbe368535	-0.17824252
238	0x3f261100	0.6486969
239	0xbee8e7ae	-0.45489258
240	0xbdef3bca	-0.11681326
241	0xbf1c9b21	-0.6117421
242	0xbf16ca86	-0.58902776
243	0x3e980d20	0.29697514
244	0x3f13f389	0.5779348
245	0x3f143a75	0.579017
246	0x3d37f7f8	0.044914216
247	0xbd08bd76	-0.03338381
248	0x3f1e0bdf	0.61736864
249	0x3c4ab2cb	0.012371729
250	0x3f21feb6	0.63279283
251	0x3e00d00b	0.12579362
252	0xbf1d6b8e	-0.6149224
253	0xbf09bc0f	-0.5380258
254	0xbd9b6ffb	-0.07589718
255	0x3d8648f5	0.06556884

layer3.bias f4 [4]
0	0x3e34bf67	0.17651139
1	0xbd8a00a0	-0.067384005
2	0x3e0d4b84	0.13798338
3	0xbcccd2a6	-0.025002789
