trading/trading_dqn.pth (torch, 74352 bytes, 6 tensors)

layer1.weight f4 [128, 7]
000000 f2 33 a2 3e 90 1a 93 be ff 0c 7d be 9a 09 ab 3e
       0.31680256 -0.28731203 -0.24711989 0.33405763
000010 9f e8 86 3e 7b 84 ac 3e 73 90 34 3d e5 51 db 3d
       0.2634935 0.33694825 0.04408307 0.107089795
000020 c9 67 f9 bd c4 af 09 be 94 0c b5 3e 2d 91 ac 3e
       -0.121779986 -0.13445956 0.3536116 0.3370451
000030 55 51 25 be 16 cc b2 bd 83 53 1f 3e 83 05 12 be
       -0.16144307 -0.087303326 0.15559201 -0.14259915
000040 5b 4c 17 3e 6c a1 81 3e d0 a8 99 be 16 29 bd bc
       0.14775221 0.25318468 -0.30011606 -0.02309088
000050 8d 92 65 3e 8a e2 ab be 48 c5 b0 3e 8a 85 8b 3e
       0.22419186 -0.33571273 0.34525514 0.2725032
000060 dd 05 8f be eb 87 76 3d 22 db 8b 3e 3b 95 95 3d
       -0.2793416 0.060188215 0.27315623 0.07303854
000070 05 44 a7 be d2 79 74 3d 32 da ad be dd 20 6a be
       -0.32669082 0.05968649 -0.33955532 -0.22864099
000080 16 05 a7 3e 09 ed a5 3e ad 24 a9 3e bc 0e b9 3e
       0.32621068 0.32407406 0.33035794 0.36144054
000090 7a 58 77 be c4 64 b6 3d e5 a8 b2 bd 13 c4 a2 be
       -0.24154845 0.08905938 -0.0872362 -0.31790218
0000a0 ea 3f 62 3e 25 ea 48 3d 8d 8d 04 3e 4f 6b 68 be
       0.22094694 0.049051423 0.12944622 -0.22697185
0000b0 7a 28 a2 3d 39 de f4 bd 75 2c 9f 3e 04 1c 9c bc
       0.079178765 -0.11956448 0.31088606 -0.019056328
0000c0 d3 f8 b0 3e 77 45 28 be 1b d0 40 3c d0 31 a8 3e
       0.34564838 -0.16432749 0.011768366 0.32850504
0000d0 5b c2 fd 3b fa 10 17 be 95 fc 37 3e 9e e9 ab 3e
       0.0077441162 -0.1475257 0.17967446 0.33576673
0000e0 5a 76 b4 3d 87 5d b4 be 20 94 a8 3e 49 00 92 3d
       0.08811636 -0.35227606 0.3292551 0.07128961
0000f0 fe 6e aa be c6 50 81 3e 5f 58 0a 3e b6 12 8c be
       -0.33287805 0.25256938 0.13510273 -0.27358025
000100 0c 82 9b 3d e1 6d 9a 3e 12 1d 9b be 61 59 a4 be
       0.07593164 0.30161956 -0.30295616 -0.3209944
000110 15 45 96 be 15 1d 3c 3e be 13 c8 be b1 cd f5 bc
       -0.2934958 0.18370469 -0.39077562 -0.030005308
000120 49 0a 1e 3e 2a 0d 67 be e2 9d 0f 3e 92 a0 7e 3e
       0.15433611 -0.22563615 0.14025071 0.2486594
000130 16 28 76 be 5c eb 04 3f 83 87 45 3e fd 6f 41 be
       -0.24038729 0.5192163 0.19289975 -0.18890376
000140 14 a4 21 3e 71 5f 65 be 8c 43 4f be 77 59 7f 3c
       0.15785247 -0.2239969 -0.20240611 0.015585295
000150 8c b7 88 bd da b0 a0 bd b7 63 e5 3d 06 77 87 3e
       -0.06675634 -0.07846232 0.1120066 0.26457995
000160 aa a6 7f 3e b4 02 8c 3e 80 c7 85 bd e0 8d 7a bd
       0.24965921 0.27345812 -0.06532192 -0.06117046
000170 de cf bd 3c f8 17 5c 3d b7 9d cd bd 41 90 2c 3e
       0.023170408 0.053733796 -0.10039847 0.16851903
000180 6c c1 ee bd 8f 4f 86 3e 4a b6 29 3f e5 38 c2 bc
       -0.11657986 0.26232573 0.66293776 -0.02370877
000190 09 88 f3 3d 4d 16 84 3e 87 cc a1 be 4c 3e 25 3d
       0.11891181 0.25798264 -0.31601354 0.040342614
0001a0 85 a1 73 3c 18 b9 7e bd 17 76 80 3d 20 f5 70 3c
       0.014870052 -0.062188238 0.06272524 0.01470688
0001b0 d6 5f 87 bb 10 cf eb bd e2 b5 a8 be 3b 0d 33 bd
       -0.0041312976 -0.115141034 -0.32951266 -0.04371379
0001c0 16 c5 8b bd 87 74 d2 3d a6 c2 ad 3d 45 af 94 be
       -0.068247005 0.10276132 0.08484392 -0.2903997
0001d0 d3 79 da 3c 4d 7f a5 3d 76 d3 96 be d5 33 c5 bd
       0.026669418 0.08080921 -0.29458207 -0.09629027
0001e0 35 98 20 3e ee 0a 18 3e e2 35 b3 be a6 0e 75 3e
       0.15683062 0.1484792 -0.35002047 0.23931369
0001f0 99 48 8c be db 67 4e 3e 74 57 15 3d 32 91 e2 bc
       -0.27399138 0.20156805 0.036460355 -0.027657125
000200 97 c1 8d 3e 4c c3 40 3e 12 31 96 3d 79 aa ae 3e
       0.2768676 0.188245 0.07333578 0.34114435
000210 a6 13 35 bd f7 99 ac be a4 53 78 be c2 52 00 bd
       -0.04420819 -0.33711216 -0.24250656 -0.031328924
000220 39 34 2f be 7e e5 ec bc 38 cc 76 3e 73 0c 2c 3b
       -0.17109765 -0.028918024 0.24101341 0.0026252538
000230 2e 00 69 3e b4 7d 3d be ee 4c a7 3e cc 66 a3 ba
       0.22753975 -0.18504983 0.3267588 -0.0012466549
000240 71 4b a5 bd 61 fa bf 3d 47 b9 33 3e ed 26 ae 3e
       -0.0807103 0.09373928 0.17551146 0.34014073
000250 0b d7 d5 3d 96 8e 2b bc d3 20 83 bd e8 70 64 be
       0.10441407 -0.010471007 -0.06402745 -0.22308695
000260 b8 4f 7e bd 1d 5e 19 be 6d bd 9c 3e 95 84 3b be
       -0.062087744 -0.14977308 0.3061327 -0.18312295
000270 87 19 40 3e 7c 20 eb bd 43 06 85 bd ed 98 a8 3e
       0.18759738 -0.11480805 -0.06495335 0.32929173
000280 90 23 d5 bc 81 56 21 bf ab 69 82 3e d1 47 69 3d
       -0.026017934 -0.6302262 0.25471243 0.056953255
000290 dc 7e 69 be 7f b4 83 3e 50 e4 45 3e 23 4c 93 be
       -0.228023 0.25723645 0.19325376 -0.28769025
0002a0 c7 0b 12 bf b6 8e 89 3d 8e 71 71 3e e1 93 50 be
       -0.5704922 0.06716673 0.23578474 -0.20368911
0002b0 68 ab 5f 3e c3 83 1e 3e 49 88 82 3d 24 58 b9 be
       0.2184273 0.1547995 0.063736506 -0.36200058
0002c0 59 b8 b8 be cf 21 a3 3e be c6 24 3e e1 74 81 be
       -0.36078146 0.3186173 0.16091439 -0.25284484
0002d0 81 0f 3b 3d 66 ed ad bc 71 92 f1 3d a8 1c 51 be
       0.045669083 -0.021231364 0.117955096 -0.20421088
0002e0 c3 ce f8 bd c4 fc 9c bd ec 0d 47 3e 79 7d 42 bb
       -0.12148812 -0.07665399 0.19438905 -0.0029676838
0002f0 50 4c e1 3d 8d 1c f6 bc 36 3b 5b be d4 b6 8a 3e
       0.110008836 -0.030042911 -0.21409306 0.27092612
000300 48 4e 86 3e a4 7d a3 3d 5d 24 39 bd 0d d0 30 be
       0.262316 0.079829484 -0.045200694 -0.17266865
000310 96 a6 26 3e d5 b7 c6 bd a0 29 7e 3d f5 42 15 be
       0.16274485 -0.09703032 0.062051415 -0.14576323
000320 11 d6 8f be 9d c8 5a 3e be 0c 36 be f6 a1 ab 3d
       -0.28093007 0.2136559 -0.17778298 0.08380501
000330 fa f3 cb 3c 5a c1 5a be 25 6c a5 be 89 4a 3b 3d
       0.02489661 -0.2136282 -0.3230907 0.04572538
000340 ae 4c f5 3c 68 b6 3b be 65 1f bc 3e 07 90 95 3e
       0.02994379 -0.18331301 0.36742702 0.29211447
000350 e1 16 90 3e fd 72 96 be 83 49 2e be 33 83 5f 3e
       0.28142455 -0.29384604 -0.1702023 0.21827392
000360 dc fe f2 bd eb 79 d4 3d 7c 5f 38 3e 90 7c 98 be
       -0.11865017 0.103748165 0.18005174 -0.29782534
000370 31 67 62 3d 2c 87 e3 bd 79 80 18 3e c7 88 35 3e
       0.055274192 -0.11109766 0.14892758 0.17727958
000380 d1 e6 b6 3e 51 93 83 3e 80 95 ab 3e ed 15 52 be
       0.35722974 0.2569833 0.33512497 -0.20516177
000390 ce 31 82 be bd 4a f1 bd 37 a8 86 be 7c ce 9e 3e
       -0.25428623 -0.11781833 -0.26300213 0.3101691
0003a0 06 1d ad 3e 2a 46 39 be b2 cd 8d bc b7 10 ac bd
       0.33811206 -0.18093172 -0.017309997 -0.084016256
0003b0 44 8c 0d be 9d 91 82 be b5 7b fb 3e 1c 79 21 3d
       -0.13823038 -0.2550172 0.49117818 0.03942214
0003c0 a7 53 a0 3e 13 ff ce bd c4 d5 95 be 4c 89 49 3d
       0.31313822 -0.10107245 -0.29264653 0.049203202
0003d0 c7 bf 97 bd 1c 55 c2 bd 1d 69 f1 bd 11 e1 8a be
       -0.074096255 -0.094888896 -0.11787627 -0.27124837
0003e0 f8 08 05 3e 13 95 d9 bc 4f b6 7c 3e 8c d0 70 3e
       0.12991703 -0.026560342 0.2467892 0.23517054
0003f0 9f 1b bf 3c 59 69 a0 bc f0 f6 11 be f6 36 a5 be
       0.0233286 -0.019581484 -0.14254355 -0.32268494

layer1.bias f4 [128]
000000 f8 04 4d bd 8c 34 93 bd 38 d0 b6 be 80 64 b3 be
       -0.050053567 -0.07187757 -0.35705733 -0.35037613
000010 0c e5 86 be c2 0e 6b 3e 33 8d 08 3e 8f f3 00 be
       -0.26346624 0.22954848 0.13335113 -0.1259291
000020 9c cd 6f 3e 3f 2d 97 be 7c af 83 3e b8 2e a6 3e
       0.23418278 -0.29526708 0.2571982 0.3245752
000030 80 a6 25 bd 1b 88 83 3e 35 5f 0a be c7 63 2e 3e
       -0.04044199 0.25689778 -0.13512881 0.1703025
000040 fc f0 91 be 44 7d e5 3d d5 3f 22 bd be 26 49 be
       -0.2850417 0.11205533 -0.039611656 -0.19643685
000050 f5 ad 16 3e 9a 12 0b 3e 97 e3 f6 bd dc 34 64 be
       0.14714797 0.13581315 -0.12055128 -0.22285789
000060 45 9b 60 be ca 4a 66 3e c6 ed ce bd e1 c4 9e 3d
       -0.2193423 0.22489467 -0.101039454 0.077523954
000070 e4 af e1 bd d2 4b 1e 3e 06 e0 10 3e 13 d2 00 be
       -0.110198766 0.1545861 0.14147958 -0.12580137
000080 54 98 6d be 02 bd 5d be e6 25 bc bd a4 b5 33 3e
       -0.2320264 -0.21654132 -0.09186916 0.17549759
000090 ca e0 92 be 9e 1f 61 3e fc a0 03 bc 6e d3 22 3d
       -0.28687125 0.21984717 -0.008033987 0.039752416
0000a0 0e 5d 53 3e 7c f3 17 be 24 bf 5b be 38 ed 90 be
       0.20640966 -0.14838976 -0.21459633 -0.28305984
0000b0 f2 65 13 3e e1 d6 94 3e 4b 09 23 bd 6e 22 2c 3e
       0.14394358 0.2907019 -0.039803784 0.16810009
0000c0 f7 36 d2 3c f5 d4 95 be 51 fd c1 bd 93 0f ea 3d
       0.025660975 -0.29264036 -0.094721444 0.11428752
0000d0 c2 90 f9 bd 14 b6 44 be c1 53 44 3e bc fe 2a be
       -0.121858135 -0.19210082 0.19172575 -0.16698736
0000e0 cb 64 26 be 3d fc a5 be a9 e4 06 3e 14 49 5a be
       -0.16249387 -0.32419005 0.13173164 -0.2131694
0000f0 d7 4f 37 3b 90 9c 3f 3e b7 9b c0 bd 08 6c fb bd
       0.0027971172 0.18712068 -0.094047 -0.12276465
000100 ab 5c 4b 3e a3 d2 71 3e 77 a5 82 bd e1 40 3b be
       0.19859569 0.23615508 -0.06379216 -0.18286468
000110 ea 3f d9 bc d8 86 86 be 2f 08 ab be 07 94 16 3d
       -0.026519734 -0.26274753 -0.3340468 0.036762264
000120 39 2c 83 bd 2a 5d 63 3e 01 f8 5e 3c c7 69 80 3e
       -0.06404919 0.22203508 0.013608933 0.25080702
000130 90 a0 63 3d 55 fa 9c be a7 bb 4c bd a8 79 aa bd
       0.055573046 -0.30659738 -0.049983647 -0.08323985
000140 ab 1a 2f be f8 20 37 3e d4 77 75 3e 82 d0 5a be
       -0.17100017 0.1788367 0.23971492 -0.21368602
000150 d1 6c 96 3e 5f 6c 90 be be 38 56 3e fa 34 b0 3e
       0.29379895 -0.2820768 0.20920083 0.34415418
000160 65 aa 91 be 4b 25 8b 3e 56 4d 87 be 70 c9 37 3e
       -0.28450313 0.2717689 -0.2642619 0.17947936
000170 21 7e 0a 3c a7 c1 6e be 11 39 3e bd 2c 87 b8 bd
       0.008452923 -0.2331606 -0.04644114 -0.09010157
000180 a8 26 35 3e 00 84 8e bd 6e 48 a9 3e a8 e3 a5 3d
       0.17690527 -0.06958771 0.33063072 0.081000626
000190 cc 28 b8 3d 50 30 30 be dc 07 6d 3c 50 15 a0 3e
       0.089921564 -0.1720593 0.014467206 0.3126626
0001a0 fb 87 cf 3d 28 e8 e2 bd b6 0f c9 3d 18 47 75 bd
       0.10133358 -0.110794365 0.0981745 -0.059882253
0001b0 dd f7 97 be 06 91 20 bd 0b 7b e7 bd 5a 50 4e be
       -0.29681292 -0.039200805 -0.113027655 -0.20147839
0001c0 18 89 62 be ac 86 7d 3e 80 69 98 3e 15 83 30 be
       -0.2212261 0.24758404 0.2976799 -0.17237504
0001d0 b1 8c 91 3d e5 0d 19 3e 87 ad d0 bd 9f 27 5b 3e
       0.07106913 0.14946707 -0.10189348 0.21401833
0001e0 b9 db 97 3e 2d a5 f6 3b 89 c5 ba bc 8b 18 9f be
       0.29659823 0.0075270147 -0.02279927 -0.31073412
0001f0 c3 2c 80 be a3 63 92 3e 91 67 41 be b7 92 4e be
       -0.2503415 0.28591642 -0.18887164 -0.20173155

layer2.weight f4 [128, 128]
000000 52 3c 78 3d 29 ae a2 3b b7 93 f5 bb 9c 74 9f 3d
       0.0606044 0.004964609 -0.0074944156 0.07785913
000010 69 17 3c 3d 5d 4c 9b bd af be 9b bd 65 41 f0 3b
       0.045920763 -0.075829245 -0.076047294 0.0073320144
000020 b0 96 4b bd 9c f1 91 3d c9 3c 9b bc 1b c0 24 3d
       -0.049704254 0.071261615 -0.018949883 0.04022227
000030 57 36 c2 bc 7a 50 dd bc bc 41 6e 3d a8 1b 8e 3d
       -0.023707552 -0.027015913 0.058168158 0.06938869
000040 f9 12 15 bd 50 2d 46 bd df d8 5f bd b2 e8 99 bd
       -0.036395047 -0.048383057 -0.054650184 -0.07515086
000050 ca 6a 97 3b 19 30 43 bc 45 72 8c 3c a8 e2 39 3d
       0.0046208845 -0.011913323 0.017144332 0.045382172
000060 4b 8a d6 3c 2c 4b 45 bd b7 c0 02 3c 5b 24 64 bd
       0.02618899 -0.048167393 0.007980517 -0.055698734
000070 65 6a 49 bd 11 4a 08 bd 29 39 37 bc 09 c5 22 bd
       -0.04917373 -0.03327376 -0.011183062 -0.03973869
000080 db bd e7 3b 9a 5b 3c 3d 53 b5 1f 3d a5 49 a6 bd
       0.007072193 0.045985796 0.038991284 -0.08119515
000090 c1 1f 24 3d 23 c0 19 bd b8 60 44 bc 82 40 2e 3d
       0.040069345 -0.03753675 -0.01198595 0.04254199
0000a0 60 c6 8f bd 63 54 71 3d 8e 51 60 bc a4 ca 87 bd
       -0.07020259 0.058918368 -0.013691319 -0.066304475
0000b0 3e 04 8d 3d e4 ee 75 3d 21 85 65 bd b0 e7 ca 3b
       0.06885575 0.060042277 -0.056035165 0.00619217
0000c0 6f 9d d9 bb 2c 03 75 bc 17 bf a2 bc 01 e0 32 3d
       -0.006641082 -0.0149543695 -0.01986651 0.043670658
0000d0 0b 43 6c 3d 1d c9 07 bd 13 8c d7 3c e6 b7 3f bd
       0.057681125 -0.03315078 0.02631191 -0.04680624
0000e0 2a 6b 11 bd 51 0f a0 bc ea 56 81 3d cd 03 4f bc
       -0.03550259 -0.019538553 0.06315406 -0.0126351835
0000f0 71 6c f8 bc 3a a3 c0 3c e1 fa cb bb 59 9e 39 bb
       -0.030325146 0.023515332 -0.0062249755 -0.0028323142
000100 3c 74 fb bc 28 f0 65 bd 6c ae 6c bd d8 38 51 3d
       -0.030695073 -0.056137234 -0.05778353 0.0510796
000110 cd 83 b1 bb 0b 01 c7 3c 61 e5 50 bd 9a ce 2e bd
       -0.005417323 0.02429249 -0.051000003 -0.0426775
000120 1e 73 89 3d ea 68 a0 3d fc 84 50 3d fa 23 80 3d
       0.0671141 0.07832511 0.050908074 0.06256862
000130 28 b3 79 bd 46 49 a7 bd 1d d3 96 3d 1a 56 16 3b
       -0.060961872 -0.08168273 0.073644854 0.0022939504
000140 73 b8 07 b9 02 42 8f 3c 6b a6 b9 3c 6c 5e b0 bc
       -0.00012943316 0.01748753 0.022662362 -0.021529399
000150 ba 03 95 bd 3d 0b 90 bc 54 1e 91 3c 60 fe 8b 3d
       -0.072761014 -0.017583484 0.017714657 0.068356276
000160 91 35 a1 3b a5 56 04 3d 42 63 d9 3c d4 68 80 3d
       0.0049197157 0.032309193 0.026536588 0.062699944
000170 1c 27 8b bc 24 db f0 bc f0 2f 4a 3a 80 11 49 bd
       -0.016986422 -0.02940137 0.0007712832 -0.049088955
000180 51 67 9a bd 50 55 29 3d 79 64 94 bd 6d d6 03 3d
       -0.07539237 0.041341126 -0.07245726 0.032186914
000190 35 63 99 bd fb 08 93 bd 0e 68 71 3c 68 60 89 3d
       -0.07489625 -0.07179447 0.014734281 0.06707841
0001a0 bb 4e 4f bc 68 a9 5e 3d d0 76 32 bd ef 0c 82 3d
       -0.012653048 0.054360777 -0.04357034 0.06350123
0001b0 ea f0 42 bd 44 eb 4f 3d 4a 68 6e bd d3 60 37 bd
       -0.047593035 0.050761476 -0.058204927 -0.044770073
0001c0 81 42 34 3d 91 92 63 bb b0 48 35 3d 53 ab 11 3d
       0.044008736 -0.0034724812 0.044258773 0.035563778
0001d0 a1 1e 89 bd ec 17 41 3c 01 b8 91 bd e8 84 9c bd
       -0.06695295 0.011785489 -0.07115174 -0.07642537
0001e0 9e 09 a6 3c a0 27 42 3d 3d 07 73 bd 16 a9 25 3b
       0.020268258 0.04740107 -0.059333075 0.0025277785
0001f0 c3 43 08 3d 3c 2a 5b bc af 24 4f bd a4 b9 58 bd
       0.033267748 -0.013376769 -0.050572094 -0.052911416
000200 a5 5f 9d bd 58 eb b9 3c 27 f4 87 bd 3b 57 a3 bd
       -0.07684258 0.022695228 -0.06638365 -0.07975622
000210 f2 a4 73 bc 2b 49 2a 3d 41 91 9f bd ba 56 cf 3a
       -0.014870869 0.041573685 -0.07791377 0.0015818693
000220 ba a6 14 3d 6c 0f a3 bd 06 85 84 3d c7 c0 0b bd
       0.036291815 -0.07961926 0.06470685 -0.034119394
000230 9a ff 76 b9 a9 3a 89 bd 9a 16 41 bd 48 5c 82 bc
       -0.00023555607 -0.06700642 -0.047140695 -0.015913144
000240 b3 78 d9 3c 43 3e 91 ba e6 8c ae bc b4 01 89 bb
       0.026546812 -0.0011081178 -0.02130742 -0.004181111
000250 3d 82 65 bd 14 5f c0 bb c6 cc c4 3c 01 8e 78 3d
       -0.056032408 -0.005870709 0.024023425 0.0606823
000260 a6 9e 40 3d ac 43 6c bd 70 6b 65 bd 99 9b 97 3b
       0.0470263 -0.057681724 -0.056010664 0.004626703
000270 ea 31 31 3d a5 0a 68 3d 4d 50 89 bd ec 05 ca ba
       0.043260492 0.056650776 -0.06704769 -0.0015413142
000280 38 22 04 bb dc 8a 8f 3d 0b ff 58 bd 13 6b 5b 3d
       -0.0020161998 0.07008907 -0.052977603 0.05356891
000290 87 07 f0 3c ee a6 fa bc fe 88 be 3b 9d 8f c0 bb
       0.029300464 -0.030597176 0.0058146706 -0.005876495
0002a0 52 08 41 3d 25 f0 84 3d 4f 97 80 3c 7d 4e 9b 3d
       0.047127075 0.064911164 0.01569715 0.0758333
0002b0 33 ae 47 bd ec 05 e5 3c ae a9 4d bd f7 ae a4 3d
       -0.048750114 0.027956925 -0.050210647 0.080411844
0002c0 15 8a 99 bd ee c0 86 bd f2 5c a4 bb 35 1a ca bb
       -0.0749704 -0.06579767 -0.0050159628 -0.006167675
0002d0 e0 63 9f bd af e6 a6 bc 01 5b 33 3c bd a9 33 3d
       -0.077827215 -0.02037367 0.01094699 0.043863047
0002e0 fb 37 20 bd df 37 80 bd 81 55 61 bc ce fb 17 bd
       -0.039115887 -0.062606566 -0.013753296 -0.037105374
0002f0 39 b2 dc bc bd af 21 bd 14 d0 a4 bd 18 88 7c 3d
       -0.026940452 -0.039474238 -0.080475 0.061653227
000300 b0 13 00 bd b8 15 a6 3c 0c fe fd bc e5 4f d8 3a
       -0.031268775 0.020274028 -0.031004928 0.0016503303
000310 23 df 37 bd 27 41 47 bd 6e 0f 9e 3d 6c 33 4b 3d
       -0.044890534 -0.04864612 0.07717787 0.049609587
000320 a1 f1 f9 3c 1e e4 54 bd 28 97 54 bc 99 f6 62 3d
       0.030510725 -0.051975362 -0.012975492 0.055410955
000330 19 15 10 3b 5c d6 6c bd ba d1 1e 3d 68 34 19 3c
       0.0021985231 -0.057821617 0.03877423 0.0093508735
000340 51 e6 91 bd 72 f0 74 3d a6 81 ec bc fb 82 5e 3d
       -0.071240075 0.05979962 -0.028870415 0.05432413
000350 02 2c 67 3d e0 06 a8 bd 26 01 09 3d be e3 a2 3d
       0.056438453 -0.08204436 0.03344836 0.079535946
000360 4f 1c 9a bd 9f 6c 3e 3b 39 ac 1c 3d c2 17 59 3d
       -0.07524931 0.0029056442 0.03825018 0.053001173
000370 e4 01 d6 bc 87 6a 99 3d 7e 71 5b 3c f2 fe 52 bd
       -0.026123948 0.074910216 0.013393758 -0.051512666
000380 4b 69 ec 3c c5 db 9c bc 42 ef 3c bc 54 a5 31 bd
       0.028858801 -0.019147763 -0.011531653 -0.04337056
000390 e4 9b a1 bb 81 a1 a9 3c 7c 23 7b 3c 07 e9 a1 3d
       -0.0049319137 0.020706894 0.015328284 0.079057746
0003a0 e4 38 0e bd 59 7d 51 3c 72 26 f5 3c d3 8c e8 3c
       -0.034722224 0.012786233 0.029925559 0.028387463
0003b0 c1 a6 33 3b 0f 96 54 bd 2c 13 da 3b 3e 6c ba 3c
       0.0027412625 -0.05190092 0.0066551175 0.022756692
0003c0 e7 8f 7a bd 6e da 23 3c 5a 79 09 bc 93 ea 77 3b
       -0.061172392 0.010000808 -0.008390749 0.0037829026
0003d0 8b 1c c5 bc b4 35 60 bd 44 fd 4b 3c ea 55 02 bd
       -0.024061462 -0.054738715 0.01245052 -0.031820215
0003e0 a9 21 1b 3c 83 7f ec ba f3 1b 45 bd 56 b0 a5 3d
       0.009468474 -0.0018043373 -0.048122358 0.08090274
0003f0 68 21 97 bd 9d 16 c0 3b 56 07 0d 3d a8 90 31 3d
       -0.073794186 0.0058620707 0.034430824 0.043350846

layer2.bias f4 [128]
000000 45 df 95 bc ad 0b 2c 3a 08 95 4b bd 5b 04 8f 3d
       -0.01829494 0.0006563019 -0.049702674 0.069832526
000010 f8 97 f0 bb a7 96 14 bb 8b d4 31 3d b5 3e 2f ba
       -0.007342335 -0.0022672804 0.043415587 -0.0006685064
000020 e1 a7 0e 3d e7 81 13 bc 64 bb 6e 3c 84 d5 9a 3d
       0.03482807 -0.009003139 0.014571045 0.07560256
000030 76 4f 14 bc 84 6e cd 3c a4 11 64 bd c1 f6 ed 3c
       -0.009052148 0.025077112 -0.055680886 0.029048325
000040 3e c3 a2 bd 5d b1 20 bc 52 ba 6a 3c ea fa fd bc
       -0.07947396 -0.009807912 0.014326649 -0.031003434
000050 68 ed 80 3c 6f 7f a4 bc a8 05 1d 3d 05 10 07 bd
       0.015738204 -0.020080296 0.038335472 -0.03297426
000060 70 de 40 3d 5e 9f a8 bd f6 a5 51 3d e3 69 a8 bd
       0.047087133 -0.08233522 0.051183663 -0.08223321
000070 4c 4f 69 bd 68 dd 3b 3c be e0 84 bc b5 ea de 3a
       -0.05696039 0.011466362 -0.016220447 0.0017007204
000080 66 ea 6a bd 12 e7 c7 3c 4d aa 86 bc 12 84 fa 3c
       -0.057352446 0.024402175 -0.016438628 0.030580554
000090 2d b3 0b bb 9d 40 75 3d b1 3a 00 bd 4e 18 81 3d
       -0.0021316514 0.059876073 -0.031305972 0.06303464
0000a0 6d 11 8a 3d 2b 8c a7 3d 06 dd b1 bd 1f aa 37 bc
       0.06741605 0.08181032 -0.08684735 -0.011209994
0000b0 bf 74 8a 3c 0d 8c 3e bd 7a f6 83 3c 25 b4 89 bd
       0.016901372 -0.04652028 0.01610874 -0.06723813
0000c0 58 a3 8d bc 43 3c ff bc 84 c1 79 3d 53 03 39 3b
       -0.017289802 -0.031156665 0.060975567 0.002823074
0000d0 76 34 28 3d f8 7a 96 bd 9b 09 5c 3d c4 85 a1 bc
       0.041065656 -0.07347673 0.053720098 -0.019717105
0000e0 8d fc 1e bd 72 2c a7 bc a6 eb 85 3d 1a 02 00 3d
       -0.03881507 -0.020406935 0.06539087 0.031252004
0000f0 bd 21 85 3d 0c cc 1a bc 20 30 51 bd ba f9 6b 3b
       0.06500576 -0.009448063 -0.051071286 0.0036007003
000100 c9 2c 87 3c aa 75 8b 3d 52 23 1f 3b a9 a0 2d 3d
       0.016500847 0.06809552 0.0024282527 0.042389546
000110 bb c4 90 bd 5b 06 20 bd 30 2b 0f 3c 46 42 f9 bc
       -0.07068773 -0.03906856 0.008738324 -0.03042711
000120 ce 49 5f bc 82 cc 99 3d 81 e4 d6 3c a6 a7 87 3c
       -0.013628436 0.0750971 0.026232006 0.016559433
000130 57 be 5c 3b 42 7d d0 bc fc 4f 88 3d 15 1b 28 3d
       0.0033682787 -0.025450353 0.06655881 0.041041452
000140 2a 16 a4 3d 09 1a c9 bc 96 1d 99 bc ec de 6c bd
       0.0801204 -0.024548547 -0.018690865 -0.057829782
000150 69 1b 7a bd 17 55 97 bd b7 6b d7 bc 8a 98 26 3d
       -0.061061297 -0.073892765 -0.02629648 0.040672816
000160 36 4c 88 bd 92 0d 81 3c 29 ee 4f bd 93 bf 95 3d
       -0.06655161 0.015753541 -0.050764237 0.073119305
000170 78 73 5d 3d bd 42 b3 3c 0a 1e 53 bd 36 89 1e 3d
       0.054065198 0.02188241 -0.05154232 0.038705073
000180 8d ac 6f bc b9 3d 3f 3c 25 d8 87 3d 9c 6e 42 3d
       -0.014628542 0.011672431 0.06633023 0.047468767
000190 67 a8 e6 bb f5 84 30 3d f3 ef 82 3a 2c 41 89 bc
       -0.007039118 0.043095548 0.0009989723 -0.01675471
0001a0 d1 37 b1 ba 50 aa a2 3c 74 3f 6c 3d f5 40 9b bc
       -0.0013520663 0.019856602 0.0576777 -0.018951872
0001b0 93 cf 9a bd 64 9a de ba 2a fd 89 bd 5f 8d d2 bc
       -0.07559123 -0.0016983268 -0.0673774 -0.025702177
0001c0 e6 49 af bd ef e8 53 3b 72 48 42 3d 4b 54 91 bc
       -0.08559017 0.0032334884 0.04743237 -0.01774039
0001d0 f0 94 33 bd 29 6e 0b bd 23 bd 93 bd dc 57 d8 3c
       -0.04384321 -0.034040604 -0.07213809 0.026409082
0001e0 e7 94 86 3d 5f 82 ee bc c1 d4 2f bd c8 f7 00 3d
       0.065713696 -0.0291149 -0.042927507 0.031486303
0001f0 db 4a 0f 3c 98 c4 42 bd ed 45 00 bc 41 21 b5 3c
       0.008745874 -0.047550768 -0.007829172 0.022110583

layer3.weight f4 [3, 128]
000000 68 ce 01 bd 65 76 88 bd 5b 81 95 bc 3c 64 8f bd
       -0.031690985 -0.06663207 -0.018250158 -0.0700154
000010 ab ec a1 3d 0d 46 44 3c 55 4d 87 bc 08 26 29 bd
       0.07906469 0.011979592 -0.016516367 -0.041296035
000020 37 c7 28 3d 45 d6 25 3d 73 30 65 bd 4c 94 54 3c
       0.04120561 0.040487546 -0.055954408 0.01297481
000030 c4 ca 8c bb c4 9d b4 3c 2f cf 03 bd 5d a9 bb 3c
       -0.0042966325 0.022047885 -0.032180008 0.022907907
000040 40 0c b0 bc 7b f0 81 bd 4a 59 99 3d 9d 66 97 bc
       -0.021490216 -0.06344696 0.07487734 -0.018481547
000050 54 00 b4 bc e3 d4 3a 3d 73 6e 06 3c a8 91 24 bd
       -0.021972813 0.04561318 0.008205044 -0.04017797
000060 a3 d2 7d 3c 67 ee 22 3d bb 83 19 3d 69 bc 2e bc
       0.015492114 0.03977814 0.037479144 -0.010665038
000070 97 ea fb bb df 16 71 bd f7 c6 62 bd e2 b2 32 3d
       -0.0076878774 -0.058859702 -0.05536553 0.043627627
000080 f3 03 a4 bd 2b 9c 88 3d 1e de 74 bd 4a 22 66 bb
       -0.08008566 0.06670412 -0.05978214 -0.0035115653
000090 48 c2 41 3d 73 80 9c 3c 78 7c 84 bd 9a d2 a4 3d
       0.04730442 0.019104218 -0.06469053 0.080479816
0000a0 09 c1 9d 3d 0e de 3e 3d 5a 6d 70 3d f5 e3 8d 3d
       0.07702834 0.046598487 0.058698036 0.06928245
0000b0 b0 16 9b bd 6e ef af bc bb 9e 0e bc 5e 3a 20 3d
       -0.07572687 -0.021476474 -0.0087048365 0.039118163
0000c0 a3 93 cd bc 78 82 a7 bc 3c c5 72 bd 5b a3 0f bd
       -0.025094813 -0.020447955 -0.05927013 -0.035067897
0000d0 e5 35 6f bb f4 2b 23 bd a9 8f 69 bd a6 54 67 3d
       -0.003650063 -0.03983684 -0.05702177 0.05647721
0000e0 57 ec fc 3c 06 84 d6 bc 0e 47 07 3d 84 01 c4 bc
       0.030874414 -0.026186 0.033026747 -0.023926504
0000f0 ab 49 ae 3c 35 64 20 bd 64 cf 82 bd 41 c2 43 3c
       0.021275362 -0.039158065 -0.06387213 0.011948169
000100 00 42 4c 3d 0d de 8c bc 53 50 af bc 59 35 2e 3d
       0.04986763 -0.017195726 -0.021400606 0.042531345
000110 28 24 a2 3c 8c 29 71 bd 25 51 4a bb f3 6e be 3c
       0.019792631 -0.058877513 -0.003087112 0.023246264
000120 ab 31 dd 3c 2d 69 04 b9 32 6a 24 b8 4b 66 37 bd
       0.027001223 -0.00012627682 -3.919955e-05 -0.04477529
000130 0c b9 3b bc bf e7 58 bd a7 55 88 3d 88 91 25 bd
       -0.011457693 -0.052955385 0.06656962 -0.040421993
000140 d1 3d 06 bc 94 81 84 3d 9e 9e 44 3d 24 24 f1 bc
       -0.008193449 0.064700276 0.04800283 -0.029436179
000150 87 a4 57 bd f3 89 21 bd 75 b3 31 3b ad 45 f2 3c
       -0.05264714 -0.0394382 0.0027115021 0.02957424
000160 c0 0e 70 bc 06 14 d1 bc 72 98 ff 3c 64 3f d9 bc
       -0.014651954 -0.025522243 0.031200621 -0.026519485
000170 e4 da 9a bc da 63 96 bc cf 45 ae 3c 48 36 82 3c
       -0.018903203 -0.01835816 0.021273522 0.015895024
000180 4b db 32 bd 8d 0d d8 3c dc 01 11 3c 5c 12 4d bc
       -0.043666165 0.026373649 0.008850541 -0.012516584
000190 0d 9f 93 3c db 03 0d bd 8a 18 09 bd c6 fe 0d bc
       0.018020177 -0.034427505 -0.033470668 -0.0086667
0001a0 55 74 29 bd 8c 08 77 bb ee a6 71 3d 2f 61 a9 3c
       -0.04137071 -0.0037694303 0.058997087 0.020676224
0001b0 ff cb c4 bc 25 70 70 bb c3 be 7b 3b 96 f1 84 3d
       -0.024023054 -0.0036687937 0.0038413263 0.06491391
0001c0 b0 76 2a bc e5 97 39 bd 02 c5 83 bd ec 77 f7 bc
       -0.010404274 -0.045310874 -0.06434061 -0.03020855
0001d0 3f 71 ec 3c af c6 50 bb a6 05 88 3d 83 8b c6 bc
       0.028862594 -0.0031856706 0.06641702 -0.024236446
0001e0 54 d6 5c 3d 27 6e 08 b9 e2 8e 2f bc b1 1e 0f 3d
       0.053915337 -0.00013011006 -0.010715218 0.03494138
0001f0 bd 3c b0 bb ac 66 53 bd bc 26 4d bd 58 30 8b 3d
       -0.0053783343 -0.051611587 -0.050085768 0.0679633
000200 9e fa 06 bd 20 e7 74 3d db 89 3c ba d8 ea f6 3c
       -0.03295385 0.05979073 -0.0007192173 0.03014128
000210 52 bd 27 bc 02 6f 3b bd ef 1c 23 3d 2b 8f c9 3c
       -0.010238009 -0.045760162 0.039822515 0.0246044
000220 e9 8f 3a 3d 4e 62 86 bd 04 7a f8 3a be 13 00 bb
       0.0455474 -0.06561719 0.0018957262 -0.0019543017
000230 d9 e1 0f 3d 75 67 16 3d a9 1c 82 bd d5 73 40 bd
       0.035127494 0.036719758 -0.06353123 -0.046985466
000240 46 c6 09 3c 48 03 f7 bb c9 c5 87 3d c1 a7 28 bc
       0.0084090885 -0.007538233 0.066295214 -0.010293902
000250 ca 89 31 3d 1e 7f f9 3b 00 36 bf 3a 62 a6 39 bd
       0.043344297 0.0076140305 0.0014588237 -0.04532469
000260 db 9e 34 3d 22 88 42 3d e1 1e 80 bd 1f 6e 8c bd
       0.04409681 0.047493108 -0.0625589 -0.068569414
000270 96 49 cf 3c a9 98 28 3d 60 23 36 3c 26 49 41 bd
       0.025303643 0.041161213 0.0111168325 -0.0471889
000280 f9 04 be bc 8d 96 54 3d d7 c3 70 bd b2 08 84 bd
       -0.02319573 0.05190139 -0.058780517 -0.06446971
000290 8b ec 11 3d c0 a8 01 3d 7e 27 80 bd 8c af 32 bd
       0.035625976 0.031655073 -0.062575325 -0.043624446
0002a0 b4 49 ab bc 4c 81 87 bd eb 1f 04 bc 7f 92 65 3d
       -0.020909168 -0.06616458 -0.00806425 0.056047913
0002b0 fb 33 9a bd 8b 54 73 bc 87 ca 68 3d 80 60 8f bd
       -0.07529446 -0.0148517 0.05683377 -0.07000828
0002c0 d0 12 52 bd 58 79 56 bd 56 c8 05 3d ee 24 74 bd
       -0.051287472 -0.052361816 0.03266176 -0.05960553
0002d0 80 96 af bc 28 6f 83 bc 3f 01 59 bd 02 6f 72 3d
       -0.021434069 -0.016044214 -0.052979704 0.059187897
0002e0 c8 94 0c 3d 19 20 b1 3a 57 c1 bb 3c b1 20 b2 bc
       0.034321576 0.0013513594 0.02291934 -0.021744104
0002f0 f3 7b 90 bc 47 99 a2 3c a2 8a 24 bd 0b 47 02 3d
       -0.017637229 0.019848479 -0.040171273 0.031806033
000300 98 05 61 3c b7 b5 5f bd 87 fd b1 bc 2f bd 59 3d
       0.013734244 -0.054616656 -0.021727337 0.053158935
000310 43 7c bd 3c a3 71 7a bd a9 71 a3 3c 28 52 78 bd
       0.023130542 -0.06114353 0.019951658 -0.060625225
000320 c5 1f 5d bc a8 c2 32 3b 9a 5c 11 3d 52 e1 e5 bc
       -0.013496344 0.0027276669 0.035488702 -0.028061543
000330 f1 41 80 bd 61 12 53 bd c7 38 95 bc 23 bf 32 bd
       -0.06262577 -0.0515312 -0.01821555 -0.043639313
000340 47 f3 c6 3c 5e 7e 86 3d 3f 2c 4a bd 0c 3f 09 bd
       0.024285926 0.065670714 -0.049358603 -0.03350739
000350 8f 39 80 3d ad 35 5d 3d 8b 40 6b bd 45 5d 46 3d
       0.062609784 0.054006267 -0.0574346 0.048428793
000360 5f 78 34 3d e4 60 2e 3d 26 e3 2f 3d 07 e7 06 3d
       0.044060107 0.04257287 0.042941235 0.03293517
000370 d8 46 99 3d c7 82 ca 3c 15 59 4a 3d 0d fc 57 bd
       0.074842155 0.024720563 0.04940136 -0.05273061
000380 bf 56 88 bc cd 4c 8e 3d d2 e3 d0 bb d9 0f 18 3d
       -0.016642926 0.06948242 -0.0063748145 0.03712449
000390 c6 36 67 bd fd 1a e6 bb 09 b5 81 3d 9c b6 98 3d
       -0.05644872 -0.00702226 0.06333358 0.07456705
0003a0 76 6a 59 3d 14 db 7a 3c 9b 92 9c bd 21 5b 90 bc
       0.053080045 0.015311021 -0.0764515 -0.017621579
0003b0 44 34 8f 3d 96 02 08 3d 88 e2 5d 3d 96 92 f7 bc
       0.06992391 0.03320559 0.054171115 -0.030221265
0003c0 dd 7e 16 3d fe c7 a5 3d 37 b2 97 bd ab 50 56 bd
       0.03674208 0.08094786 -0.07407039 -0.052323025
0003d0 60 61 3c bd a2 0d 28 bc e2 41 74 bc dd 17 8b 3d
       -0.0459913 -0.010257157 -0.014908286 0.06791661
0003e0 13 a9 1b 3d 04 5f 2a 3d 2b e8 97 bd 9c 90 03 3d
       0.03800304 0.04159452 -0.074173294 0.032120332
0003f0 a9 68 46 3d 1d 2c c0 bb 4e 12 61 3d 56 61 a3 3c
       0.048439655 -0.0058646337 0.054949097 0.019943874

layer3.bias f4 [3]
000000 a4 a1 db 3c f4 be 86 3d 42 1f 12 3d
       0.026810475 0.0657939 0.03567434
