cartpole/cartpole_dqn.pth (torch, 72314 bytes, 6 tensors)

layer1.weight f4 [128, 4]
0.2308006 0.03724567 -0.67215294 -0.30138633 -0.32615966 -0.3314109 -0.5676338 -0.2656606
-0.01711045 -0.15529619 -0.2870177 0.08560975 0.07278591 -0.14235358 0.2069915 0.24068262
0.41121686 0.2777802 -0.03641451 0.12290785 0.2482065 0.30442291 -0.060709976 0.042152733
0.105544694 0.0470402 0.195594 0.30305174 -0.07153283 0.41921067 0.73708135 -0.13475966
0.26604202 0.3411569 -0.6742906 -0.32320607 0.49438205 0.16881256 -0.18448934 -0.03837958
0.023386844 -0.058105156 -0.30586147 -0.019330543 -0.65910476 0.18807994 0.9166138 0.26465473
0.10170588 -0.0021324048 -0.072938204 -0.0902355 -0.14048214 -0.11952586 0.051273923 -0.19953631
-0.1441951 0.073363476 -0.23050605 -0.31055164 0.56459326 0.43818438 0.11421107 0.29625812
-0.32645422 -0.3382191 -0.1647657 -0.11135284 0.002973284 -0.24529995 -0.909991 -0.23269978
0.3266245 -0.31707287 -0.063329525 0.2441177 0.06508184 0.1101515 -0.6075249 -0.001878777
-0.32610616 0.041447185 0.9910492 0.35917878 -0.7217608 -0.284531 0.7517179 -0.029586708
-0.2513457 -0.3294827 -0.67763424 -0.124765605 0.24922085 0.03490633 0.37001136 0.25347596
0.42568445 -0.05237736 -0.89005166 -0.15888973 0.15082975 0.016806021 -0.10431927 -0.20342553
0.10361721 -0.42085996 -0.34578207 -0.15958798 -0.32548425 0.014103248 -0.7865021 -0.3541834
0.13668436 -0.24038826 0.058067545 0.12613748 -0.31891257 0.35746983 0.434567 0.24480712
-0.4388768 -0.35752398 0.3304426 0.25511926 -0.38347018 -0.005566658 0.7416321 0.057133134
-0.40335983 0.35068113 0.060692966 0.097822785 0.48528025 0.1729894 -0.01686852 0.22259657
0.14701116 -0.10817521 1.3994957 0.5228434 -0.3947674 0.37844315 -0.087653615 -0.12559976
-0.17489342 0.18361431 0.47285312 -0.014111316 0.0700382 -0.0668276 0.33912104 -0.19310227
-0.40419865 -0.21498434 0.3553221 0.24094261 0.10497063 -0.33025995 -0.38756987 -0.12220342
-0.029249255 -0.49584043 -0.9905623 -0.39135987 0.52677256 0.07217937 0.46934417 0.13192673
0.6483832 0.45141295 0.5330543 0.25879338 0.06759117 -0.33978045 -0.06615795 0.2731422
-0.30573532 -0.18419962 0.4814275 -0.26537243 0.18574274 -0.12309227 0.216716 -0.1753392
-0.083824985 0.16774167 -0.6155386 -0.040179756 0.23172678 -0.1773261 -0.3898392 -0.27316865
-0.13586542 -0.029928396 -0.4141716 -0.2375845 -0.3936152 0.4360455 1.1515545 0.49230513
0.6342646 0.12963977 0.28087318 0.053315014 -0.19641005 0.31861266 0.45654052 -0.20001622
-0.17722689 0.3382445 -0.10111199 0.27623305 0.32721525 -0.20950769 -0.5445662 0.38917953
-0.115230426 -0.51489586 -0.5906394 -0.30641943 0.48508596 -0.42043445 -0.39924207 0.1227598
0.21611167 -0.23048118 -0.112141386 0.0064622657 -0.58845013 -0.3236491 0.11078497 -0.045013368
-0.007138644 0.32451597 0.31892368 -0.19772147 0.063524425 -0.26946175 -0.4339756 -0.004682963
0.22133966 -0.028921714 0.08867302 -0.10552483 -0.27922225 -0.4322602 0.5762059 -0.055052675
-0.19978382 -0.2843954 0.02101817 -0.4395055 -0.20071746 0.1407276 0.59804916 -0.19015388
00000000: fe56 6c3e ea8e 183d 3712 2cbf 4f4f 9abe
00000010: 66fe a6be b1ae a9be 7350 11bf ab04 88be
00000020: 372b 8cbc f705 1fbe fcf3 92be 2a54 af3d
00000030: c710 953d 23c5 11be 94f5 533e 8175 763e
00000040: 048b d23e 3539 8e3e 6227 15bd 1cb7 fb3d
00000050: d829 7e3e 52dd 9b3e 06ab 78bd 58a8 2c3d
00000060: d127 d83d 3aad 403d cb49 483e 9929 9b3e
00000070: ce7f 92bd c8a2 d63e 5db1 3c3f 70fe 09be
00000080: a936 883e 1eac ae3e 4f9e 2cbf 447b a5be
00000090: a51f fd3e 33dd 2c3e c6ea 3cbe e833 1dbd
000000a0: c495 bf3c acff 6dbd e099 9cbe 165b 9ebc
000000b0: 17bb 28bf 0798 403e 34a7 6a3f d380 873e
000000c0: 2c4b d03d d1bf 0bbb a060 95bd 64cd b8bd
000000d0: 8dda 0fbe f9c9 f4bd 9b04 523d 3f53 4cbe
000000e0: e1a7 13be 973f 963d c709 6cbe a000 9fbe
000000f0: 2f89 103f b459 e03e 7ee7 e93d 25af 973e
00000100: 0225 a7be 0e2b adbe 57b8 28be f50c e4bd
00000110: 6edb 423b e92f 7bbe 2cf5 68bf da48 6ebe
00000120: 543b a73e 6057 a2be e9b2 81bd fef9 793e
00000130: a149 853d 1c97 e13d c086 1bbf 4c41 f6ba
00000140: 63f7 a6be 86c4 293d 66b5 7d3f 48e6 b73e
00000150: 51c5 38bf 0cae 91be 9670 403f d35f f2bc
00000160: 62b0 80be f5b1 a8be 7079 2dbf 1c85 ffbd
00000170: c033 7f3e f1f9 0e3d 2172 bd3e 9ac7 813e
00000180: 50f3 d93e a589 56bd 6dda 63bf fdb3 22be
00000190: 1d73 1a3e c8ac 893c 57a5 d5bd c84e 50be
000001a0: 4335 d43d f57a d7be 590a b1be 086b 23be
000001b0: dfa5 a6be 4f11 673c 3458 49bf 8757 b5be
000001c0: fcf6 0b3e 5728 76be 3cd8 6d3d 2f2a 013e
000001d0: 8248 a3be 4906 b73e 917f de3e b8ae 7a3e
000001e0: 76b4 e0be 620d b7be c62f a93e fe9e 823e
000001f0: 3456 c4be 8368 b6bb 9adb 3d3f 6f04 6a3d
00000200: 2e85 cebe 7a8c b33e 3099 783d 5057 c83d
00000210: a776 f83e 2224 313e da2f 8abc 5bf0 633e
00000220: 188a 163e f78a ddbd ad22 b33f 11d9 053f
00000230: f41e cabe 4dc3 c13e bd83 b3bd 399d 00be
00000240: 4317 33be 6405 3c3e ce19 f23e 2633 67bc
00000250: 3070 8f3d e9dc 88bd 46a1 ad3e 9abc 45be
00000260: 20f3 cebe db24 5cbe c7ec b53e a9b9 763e
00000270: d7fa d63d d517 a9be 8f6f c6be c945 fabd
00000280: 229c efbc ccde fdbe 7e95 7dbf 5260 c8be
00000290: 91da 063f c7d2 933d e14d f03e cd17 073e
000002a0: 71fc 253f 991f e73e 3f76 083f 9180 843e
000002b0: 3d6d 8a3d b4f7 adbe d27d 87bd 4bd9 8b3e
000002c0: 5789 9cbe d39e 3cbe aa7d f63e e5de 87be
000002d0: 5833 3e3e cd17 fcbd cdea 5d3e 1f8c 33be
000002e0: 6fac abbd 79c4 2b3e f093 1dbf 8793 24bd
000002f0: c949 6d3e f994 35be 0199 c7be c3dc 8bbe
00000300: 4e20 0bbe 652c f5bc 4d0e d4be 5a49 73be
00000310: ee87 c9be 5b41 df3e 2366 933f 6b0f fc3e
00000320: 2a5f 223f 4ac0 043e 9cce 8f3e d860 5a3d
00000330: b71f 49be 3321 a33e aebf e93e 0dd1 4cbe
00000340: f77a 35be 622e ad3e ce13 cfbd 6b6e 8d3e
00000350: c288 a73e 2f89 56be b168 0bbf 8a42 c73e
00000360: eefd ebbd 37d0 03bf 2534 17bf 02e3 9cbe
00000370: 305d f83e 2f43 d7be 7569 ccbe 7d69 fb3d
00000380: 614c 5d3e 4203 6cbe 62aa e5bd 6ac1 d33b
00000390: aba4 16bf 56b5 a5be 3be3 e23d f05f 38bd
000003a0: 49eb e9bb f526 a63e f749 a33e 7f77 4abe
000003b0: 1819 823d e4f6 89be 0d32 debe 8a73 99bb
000003c0: dda6 623e 3bed ecbc 339a b53d 671d d8bd
000003d0: 38f6 8ebe 3551 ddbe 3b82 133f ea7e 61bd
000003e0: 2194 4cbe 469c 91be 4c2e ac3c dd06 e1be
000003f0: e188 4dbe e51a 103e c019 193f b3b7 42be

layer1.bias f4 [128]
-0.40336785 -0.101962425 0.44208774 0.3111789 0.6663007 -0.14594841 0.6193929 -0.0067949663
0.44996756 -0.36648226 -0.31037638 0.235695 0.5464566 0.65754205 0.38942805 -0.32733577
0.585708 0.07183197 0.5391035 0.52996415 -0.51101464 -0.26984927 -0.19096096 -0.4463055
-0.3399512 0.6380257 0.24987249 -0.22082268 0.66367453 0.3775859 -0.37996528 0.3645809
0.44791204 0.48867813 0.37443602 0.39741078 0.3461662 -0.2696439 -0.23672788 0.6270415
0.1264579 -0.30271712 -0.37901577 0.39899892 0.45382813 0.6391002 0.6315728 0.4997145
-0.38593274 -0.39639628 -0.34765738 0.6389697 0.53391623 0.40257058 -0.22162478 0.17592359
0.3893579 -0.15907523 0.26179287 0.08325668 -0.2204302 -0.39818054 -0.39081547 0.15580304
-0.17852677 -0.23711662 0.42629945 0.5328821 -0.13740383 -0.39284694 0.65519446 0.2701151
-0.08436493 -0.3674928 0.7097123 -0.42850733 0.42989445 -0.34901184 0.6150802 0.6694074
-0.40801558 0.6498401 -0.31698564 0.5285774 0.5654262 -0.3379068 -0.058472965 0.67745435
0.39477438 0.40939823 -0.35154206 -0.03431205 0.5691585 -0.14480698 0.5191829 0.3886409
-0.010374263 -0.04165262 0.50301784 0.55346227 -0.18240894 -0.5301369 0.26337993 0.5112529
0.43564987 0.66161704 0.38165504 0.06780553 -0.27097476 -0.4252756 0.66220134 -0.24882299
0.40643632 0.4629957 -0.27810785 -0.27202404 -0.16099168 -0.41920364 0.41603482 0.45998254
-0.19008406 0.12187129 -0.37903324 0.531965 0.4265493 -0.32137698 0.6145099 0.44036123
00000000: 3b86 cebe add1 d0bd 5359 e23e d752 9f3e
00000010: af92 2a3f 8073 15be 8890 1e3f 4fa8 debb
00000020: 2662 e63e 90a3 bbbe a7e9 9ebe 085a 713e
00000030: 94e4 0b3f ad54 283f 1d63 c73e 8e98 a7be
00000040: f6f0 153f a41c 933d b002 0a3f bbab 073f
00000050: dbd1 02bf af29 8abe 458b 43be 2882 e4be
00000060: 150e aebe a755 233f 93de 7f3e 571f 62be
00000070: 93e6 293f f052 c13e cf8a c2be 59aa ba3e
00000080: ba54 e53e 0534 fa3e 14b6 bf3e 6d79 cb3e
00000090: b23c b13e c40e 8abe cb68 72be cb85 203f
000000a0: 2e7e 013e bdfd 9abe 5b0e c2be 9649 cc3e
000000b0: 295c e83e 129c 233f c1ae 213f 94da ff3e
000000c0: fa98 c5be 74f4 cabe 2600 b2be 8593 233f
000000d0: bcae 083f bb1d ce3e 9bf1 62be 5025 343e
000000e0: eb59 c73e 9ee4 22be b709 863e 7a82 aa3d
000000f0: 74b8 61be 52de cbbe f718 c8be d58a 1f3e
00000100: b9cf 36be b3ce 72be ec43 da3e f66a 083f
00000110: 97b3 0cbe 3c23 c9be d3ba 273f 874c 8a3e
00000120: 85c7 acbd 0428 bcbe b5af 353f 5065 dbbe
00000130: 201b dc3e aeb1 b2be e575 1d3f 495e 2b3f
00000140: 6be7 d0be ec5b 263f f14b a2be d950 073f
00000150: c5bf 103f 1f02 adbe 5981 6fbd a66d 2d3f
00000160: de1f ca3e a59c d13e 52fd b3be cb8a 0cbd
00000170: 5fb4 113f 4848 14be 2ce9 043f f1fb c63e
00000180: d0f8 29bc f09b 2abd c7c5 003f b4af 0d3f
00000190: 69c9 3abe 0db7 07bf bcd9 863e 78e1 023f
000001a0: 800d df3e bc5f 293f 4a68 c33e a0dd 8a3d
000001b0: 34bd 8abe b9bd d9be 0786 293f 74cb 7ebe
000001c0: 6c18 d03e c60d ed3e 2764 8ebe bc46 8bbe
000001d0: 01db 24be dca1 d6be 8402 d53e d582 eb3e
000001e0: 65a5 42be a897 f93d a510 c2be dc2e 083f
000001f0: ab64 da3e 868b a4be 8550 1d3f 0777 e13e

layer2.weight f4 [128, 128]
-0.2581575 -0.29513296 0.14723484 0.11539008 0.21189794 -0.09885819 0.19474995 0.11036659
0.122777596 -0.29318136 -0.034904882 0.25093624 0.22559649 0.22856593 0.16499536 -0.03965233
0.16458067 -0.19314195 0.23945962 0.1421924 -0.24793485 -0.15825433 -0.096024595 -0.2814774
-0.27670413 0.23897608 0.04444926 -0.0083347345 0.27876616 0.20496781 -0.0018620831 0.224689
0.13861066 0.11036378 0.1628925 0.060465187 0.20769674 0.0081108855 0.10042465 0.13428356
-0.24735534 -0.4142835 -0.21021147 0.088394545 0.083316624 0.15667236 0.18944554 0.27319667
-0.14398761 -0.30919302 -0.21963426 0.15424325 0.26147616 0.11724093 -0.1974235 0.13447468
0.14073637 0.0048126895 0.108131975 0.056466606 0.34421793 -0.14906561 -0.17604385 0.077815816
-0.04169384 -0.32338718 0.079825416 0.15120292 -0.5441834 -0.2208816 0.18503326 0.070598185
-0.10127137 -0.06310951 0.21823907 -0.011343293 0.13691635 -0.22064295 0.28382966 0.2630201
0.0050546504 0.26678273 0.04293946 0.25327185 0.21328512 -0.07081949 -0.090878025 0.15950751
0.10298588 0.2619103 -0.24433462 -0.08227619 0.17753336 -0.036161173 0.15585825 0.20243941
0.014009469 -0.18148841 0.14198366 0.17773175 -0.1081318 -0.19320236 0.439981 0.20549725
0.2337599 0.2706971 0.14593935 -0.058287475 -0.30195975 -0.22161634 0.24627598 0.15640944
0.14353944 0.18747154 -0.23267439 -0.23734136 -0.11321092 0.0945684 0.19278292 0.17945084
-0.13396628 0.15807182 -0.39592674 0.22820129 0.25621128 0.020635031 0.19668885 0.20461449
-0.06603382 -0.071507774 0.015046241 -0.060166746 -0.05362843 0.0045541637 -0.05891157 -0.060301602
-0.058798224 -0.043500673 -0.0028067345 -0.04030755 -0.073309585 -0.01859132 -0.037447076 -0.07014022
-0.058585707 -0.0152895525 0.06524782 -0.059903875 -0.047715276 0.011031145 -0.05013463 0.039363526
0.04728429 -0.021278335 0.03632799 0.047011353 0.018785568 -0.059275944 -0.042126205 -0.046045333
0.01819598 -0.032450408 0.0034950022 0.004550909 -0.025503686 0.031704407 -0.054450575 0.04278511
-0.05230108 0.012609618 -0.015978923 0.07005547 -0.020033723 -0.042572938 -0.07376491 -0.012069195
0.015155811 -0.013093281 -0.06263979 -0.074109435 -0.068930745 0.055327006 0.059425533 -0.06807996
0.018319653 -0.0399147 0.05092954 -0.06732715 0.033830985 -0.051278666 -0.05362196 -0.03539813
0.031960484 0.059398312 -0.009842713 -0.023584167 0.009395847 -0.03638594 -0.06745426 -0.049411215
-0.05110886 -0.07135099 0.046906725 0.038969435 -0.05236666 -0.040884957 -0.062884435 -0.013514898
-0.062450014 0.046974763 -0.017146818 0.007904111 -0.06838617 0.051207453 -0.03784832 -0.041609857
0.05524606 0.05298549 -0.0076180617 -0.03947933 -0.02919229 -0.027269287 0.04452314 0.025429633
0.036010224 -0.048258282 0.0037538428 0.037024487 -0.010344321 -0.03544921 -0.00967477 -0.034469757
0.05621652 0.029951617 -0.01436807 0.019241659 0.06713238 0.0362011 0.060057364 -0.022857556
-0.04840206 0.03820176 0.06019275 0.03779784 0.020243267 0.070041075 0.028679933 0.047841914
0.007051603 -0.0043727066 0.043391608 -0.024435565 -0.029988877 0.039650034 0.06095081 -0.032294143
00000000: 382d 84be ab1b 97be bbc4 163e a251 ec3d
00000010: c6fb 583e 2a76 cabd 886c 473e e107 e23d
00000020: d272 fb3d de1b 96be 6cf8 0ebd b77a 803e
00000030: c402 673e 300d 6a3e 8bf4 283e 7b6a 22bd
00000040: d687 283e 01c7 45be e734 753e e29a 113e
00000050: a2e2 7dbe 6c0d 22be 8ba8 c4bd ce1d 90be
00000060: 2aac 8dbe 25b6 743e 6d10 363d 698e 08bc
00000070: 70ba 8e3e 15e3 513e 2411 f4ba e014 663e
00000080: f4ef 0d3e 6806 e23d 4bcd 263e 58aa 773d
00000090: 74ae 543e 85e3 043c 70ab cd3d a181 093e
000000a0: b84a 7dbe f81c d4be ad41 57be 3308 b53d
000000b0: e8a1 aa3d b86e 203e 03fe 413e 6fe0 8b3e
000000c0: 7d71 13be 8c4e 9ebe cee7 60be f1f1 1d3e
000000d0: 34e0 853e 031c f03d 6329 4abe bbb3 093e
000000e0: 321d 103e c4b3 9d3b 4c74 dd3d 8749 673d
000000f0: 553d b03e a8a4 18be d744 34be e65d 9f3d
00000100: 29c7 2abd 0193 a5be 827b a33d f0d4 1a3e
00000110: 9a4f 0bbf c92e 62be 5c79 3d3e c895 903d
00000120: 5d67 cfbd 8f3f 81bd 107a 5f3e 38d9 39bc
00000130: cd33 0c3e 3af0 61be 1f52 913e 92aa 863e
00000140: 7ba1 a53b bf97 883e 4ae1 2f3d d9ac 813e
00000150: 6a67 5a3e cf09 91bd 421e babd f055 233e
00000160: 43ea d23d 1b19 863e db32 7abe 6b80 a8bd
00000170: 4ecb 353e bd1d 14bd 4e99 1f3e 474c 4f3e
00000180: f987 653c 19d8 39be 2a64 113e 50ff 353e
00000190: 3574 ddbd d7d6 45be 3145 e13e df6d 523e
000001a0: c15e 6f3e cf98 8a3e 2071 153e d9be 6ebd
000001b0: 789a 9abe 65ef 62be c52f 7c3e cc29 203e
000001c0: 01fc 123e 8af8 3f3e 3242 6ebe 9d09 73be
000001d0: 20db e7bd 14ad c13d e368 453e f6c1 373e
000001e0: 752e 09be 94dd 213e e9b6 cabe 99ad 693e
000001f0: 202e 833e cc0a a93c cd68 493e 7686 513e
00000200: bd3c 87bd ab72 92bd 8284 763c 6871 76bd
00000210: 7ca9 5bbd 183b 953b 424d 71bd d0fe 76bd
00000220: 68d6 70bd c32d 32bd 31f1 37bb 8819 25bd
00000230: 5623 96bd d34c 98bc 1b62 19bd ada5 8fbd
00000240: 91f7 6fbd 0881 7abc a6a0 853d c45d 75bd
00000250: 1871 43bd fabb 343c f859 4dbd a63b 213d
00000260: 2cad 413d e74f aebc a9cc 143d fa8e 403d
00000270: 31e4 993c 55cb 72bd 878c 2cbd 089a 3cbd
00000280: bc0f 953c b8ea 04bd 680c 653b cb1f 953b
00000290: 1bed d0bc 7bdc 013d 9107 5fbd 713f 2f3d
000002a0: a839 56bd 9298 4e3c 3be6 82bc 3e79 8f3d
000002b0: c31d a4bc f660 2ebd 0f12 97bd dfbd 45bc
000002c0: 1450 783c 3385 56bc 4a49 80bd b0c6 97bd
000002d0: 902b 8dbd 929e 623d 3068 733d 826d 8bbd
000002e0: 1913 963c 997d 23bd 7e9b 503d d1e2 89bd
000002f0: 5c92 0a3d 9409 52bd b3a2 5bbd a1fd 10bd
00000300: ffe8 023d a54b 733d 5543 21bc 9533 c1bc
00000310: 0af1 193c 6c09 15bd 7625 8abd 6a63 4abd
00000320: 8657 51bd 7820 92bd 4421 403d 6a9e 1f3d
00000330: 6c7e 56bd fc76 27bd 8ec9 80bd 976d 5dbc
00000340: 96cb 7fbd 9c68 403d 7c77 8cbc 3f80 013c
00000350: 0c0e 8cbd e8be 513d d706 1bbd 196f 2abd
00000360: b149 623d 5007 593d efa0 f9bb 14b5 21bd
00000370: ab24 efbc d763 dfbc e55d 363d ce51 d03c
00000380: 757f 133d 7aaa 45bd 0803 763b fda6 173d
00000390: 3a7b 29bc 3133 11bd ed82 1ebc 2930 0dbd
000003a0: 4b43 663d 185d f53c 0e68 6bbc afa0 9d3c
000003b0: b47c 893d 9b47 143d b6fe 753d c53f bbbc
000003c0: 3d41 46bd 7379 1c3d ac8c 763d e8d1 1a3d
000003d0: 35d5 a53c b271 8f3d 2ef2 ea3c e2f5 433d
000003e0: 2211 e73b ec48 8fbb 66bb 313d 182d c8bc
000003f0: 3cab f5bc 1368 223d 8ea7 793d dd46 04bd

layer2.bias f4 [128]
0.209958 0.060050275 0.17987418 0.05409127 0.16582586 -0.0015669641 0.012222753 0.1419254
0.054065228 0.13632508 0.04470794 -0.032762446 0.16430956 0.16206072 -0.07628805 0.19523777
0.0011494303 0.14916095 0.24923073 -0.075418286 -0.05005873 0.26799777 0.07066161 0.20195974
-0.026050868 -0.011909043 0.20391443 -0.01323063 0.2076609 -0.045849293 -0.05592693 0.050167967
0.2277184 0.1984903 0.14568761 0.15387543 -0.07912277 0.01714909 0.22366343 -0.028315477
0.2481146 -0.015476975 0.031069364 0.24353254 0.26680642 0.2404484 0.23940541 0.112877384
-0.074374445 0.059296973 -0.037151195 0.10145909 -0.052205123 0.17369781 0.07039563 -0.06497794
0.030079354 0.086190075 -0.063153185 0.19252002 -0.06122226 -0.013688179 0.015579086 -0.061155975
0.053342752 0.23761797 0.26709947 0.0542266 -0.04943087 0.26180145 0.13382974 -0.040658288
0.052393924 0.26543927 0.25020224 0.014921108 0.051689964 -0.035746913 0.005650807 0.17826436
0.1212074 0.018658038 -0.0498969 0.16108818 0.27446932 0.16096106 -0.0556726 0.18408427
-0.0593749 0.17211787 0.037758842 0.2567488 0.19513375 0.20788838 0.22943594 0.048112627
0.16573209 0.068703696 -0.04230133 0.01854757 0.20054406 0.055812627 -0.09547594 0.17281605
-0.05722133 0.048419684 0.014645917 0.2223123 0.13927692 0.21340206 0.08038028 0.15530652
-0.004843131 0.09017086 0.14802706 0.035299815 0.103409044 0.09564803 0.23172656 0.038151182
0.03872965 0.25001606 -0.053422563 0.04598529 -0.007411782 -0.04480907 -0.023248699 -0.05116754
00000000: 3bff 563e 47f7 753d f030 383e cf8e 5d3d
00000010: 41ce 293e 9762 cdba f141 483c e454 113e
00000020: 8073 5d3d cd98 0b3e ac1f 373d ea31 06bd
00000030: c440 283e 3ff3 253e e93c 9cbd 69ec 473e
00000040: 7ba8 963a a6bd 183e 5736 7f3e e774 9abd
00000050: 620a 4dbd 0137 893e 09b7 903d 89ce 4e3e
00000060: a168 d5bc 261e 43bc f2ce 503e 49c5 58bc
00000070: 0fa5 543e 78cc 3bbd a313 65bd ed7c 4d3d
00000080: 032f 693e 0b41 4b3e 222f 153e 8591 1d3e
00000090: 1e0b a2bd 407c 8c3c 0708 653e dcf5 e7bc
000000a0: c111 7e3e 2393 7dbc 2e85 fe3c 9860 793e
000000b0: da9a 883e 1b38 763e b126 753e 422c e73d
000000c0: a151 98bd 62e1 723d da2b 18bd c9c9 cf3d
000000d0: 0ad5 55bd d7dd 313e 962b 903d 2713 85bd
000000e0: fa68 f63c 6c84 b03d 7556 81bd f823 453e
000000f0: 31c4 7abd 6244 60bc 6c3f 7f3c b07e 7abd
00000100: ee7d 5a3d 2052 733e 43c1 883e b61c 5e3d
00000110: 0678 4abd d70a 863e aa0a 093e 4e89 26bd
00000120: 039b 563d a8e7 873e 821a 803e aa77 743c
00000130: dbb8 533d 5b6b 12bd 682a b93b ef8a 363e
00000140: 963b f83d bed8 983c b160 4cbd 4df4 243e
00000150: 3e87 8c3e fad2 243e f408 64bd 9680 3c3e
00000160: 1833 73bd ab3f 303e 04a9 1a3d 9474 833e
00000170: 24d1 473e b1e0 543e 41f1 6a3e bf11 453d
00000180: acb5 293e 86b4 8c3d 2944 2dbd 13f1 973c
00000190: 6c5b 4d3e c89b 643d e488 c3bd b1f6 303e
000001a0: ea60 6abd b853 463d 6ef5 6f3c d6a5 633e
000001b0: 9c9e 0e3e 1286 5a3e 6b9e a43d ac08 1f3e
000001c0: 21b3 9ebb 80ab b83d 6894 173e 8a96 103d
000001d0: 1fc8 d33d 1de3 c33d ba49 6d3e 6a44 1c3d
000001e0: fba2 1e3d 1b02 803e 9ed1 5abd 125b 3c3d
000001f0: 89de f2bb b789 37bd 0e74 bebc 0e95 51bd

layer3.weight f4 [2, 128]
0.16217318 0.071076766 0.2501817 0.057974122 0.16291276 -0.48847643 -0.29221693 0.3458787
0.30698732 0.34376082 -0.028536135 -0.03601542 0.34501383 0.21114662 -0.14614202 0.16359474
-0.5225918 0.35656473 0.34487233 -0.04485471 -0.3770013 0.21266057 -0.04075466 0.41458273
-0.4212756 -0.06347717 0.43444058 0.30646968 0.32332543 0.07976228 -0.116119064 0.0064113666
0.27750883 0.38210836 0.14096166 0.24709155 -0.024815802 -0.0029112073 0.20803119 -0.055017497
0.23489715 -0.10479102 -0.035014667 0.38422978 0.32240003 0.078859024 0.3524458 0.31727365
0.049266484 0.028287865 0.030998405 -0.14917243 -0.033321142 0.3087048 -0.06213235 -0.013684537
-0.04642456 0.3361217 0.010700346 0.3418079 -0.5249951 -0.2476559 -0.4258066 0.00435074
-0.027898602 0.36218458 0.38972205 0.047655854 0.5490006 0.31664398 0.38715604 0.03991547
-0.010536604 0.313022 0.23892167 -0.30879146 -0.18162172 -0.106207155 -0.15529768 0.20387548
0.34164217 -0.5453834 0.00235175 0.33876866 0.20792915 0.2315727 -0.012690346 0.32483944
-0.18358734 0.3338344 0.20078468 0.32788044 0.3979881 0.29019064 0.38327685 0.5357072
0.39448658 0.056178156 0.025610436 -0.019391214 0.31010857 0.03644552 0.17051136 0.33558056
0.056183357 -0.21194507 -0.49671012 0.12385173 0.41903827 0.3441734 0.046273157 0.20451905
-0.3023522 0.4028669 0.29343125 0.031377804 0.32301843 0.40370277 0.33037585 -0.20981993
-0.06204337 0.3702211 -0.052910708 -0.48763967 -0.3651656 -0.010262885 0.047277473 -0.4447222
0.30243242 0.025594667 0.33610657 -0.20016587 0.2971234 -0.19645803 0.080790825 0.36906028
-0.16898948 0.39709288 -0.013555423 -0.50838614 0.11694598 0.27885503 0.012438273 0.3134161
0.15143831 0.2283887 0.3511777 -0.00037329772 -0.5912759 0.31124917 -0.20349422 0.31580177
-0.25969577 0.02674149 0.2590799 -0.028023373 0.37556627 -0.42670178 -0.73140246 -0.060621433
0.31113368 0.3596544 0.31535715 0.29510185 0.014289445 0.06121637 0.3638547 0.047079787
0.34499413 -0.011291262 -0.012375309 0.34283832 0.2611105 0.31435782 0.13663164 0.3414806
-0.043748762 -0.06495713 -0.04678052 0.28502256 -0.072719105 0.26358363 -0.04584514 -0.064293265
0.025155663 0.33593112 -0.01652479 0.326624 -0.8052947 0.39425123 -0.733864 0.0030377135
2.1906188e-05 0.21351367 0.27013668 0.01775264 -0.39640054 0.28784773 0.16653575 0.009695841
-0.2590625 0.23737344 0.37730473 -0.1352064 -0.02715151 0.11255474 0.01665687 0.37157878
0.28291082 -0.056209598 -0.02800973 0.35055086 0.3440191 0.3763971 -0.04284105 0.32821393
-0.13466921 0.26328874 -0.15590551 0.3086921 0.22195816 0.26104102 0.1889176 -0.26292196
0.18211433 0.051281404 -0.060985953 -0.048219774 0.2847821 -0.052134413 -0.6587934 0.283912
-0.22858909 -0.7034464 -0.5369457 0.34624916 0.3545474 0.2805139 0.4763197 0.2938937
-0.71711415 0.25208688 0.3954818 -0.048468854 0.32280707 0.11622401 0.18042782 -0.121172555
-0.044100214 0.26419702 0.005589108 -0.32435703 -0.5700117 -0.032058746 -0.06542656 -0.58907795
00000000: ba10 263e b290 913d d117 803e 4676 6d3d
00000010: 9ad2 263e 9519 fabe 759d 95be 0317 b13e
00000020: 712d 9d3e 6b01 b03e 9dc4 e9bc e884 13bd
00000030: a7a5 b03e d236 583e 41a6 15be 6185 273e
00000040: 94c8 05bf a78f b63e 1b93 b03e 93b9 37bd
00000050: 5006 c1be b1c3 593e 5cee 26bd 3044 d43e
00000060: 6fb1 d7be 5200 82bd ff6e de3e 98e9 9c3e
00000070: e98a a53e 685a a33d d5cf edbd 7116 d23b
00000080: a315 8e3e b5a3 c33e 4158 103e 9105 7d3e
00000090: 824a cbbc f4c9 3ebb 2106 553e 075a 61bd
000000a0: e188 703e ad9c d6bd 8a6b 0fbd c4b9 c43e
000000b0: 9e11 a53e d780 a13d c773 b43e b171 a23e
000000c0: a7cb 493d f4bb e73c 5ef0 fd3c a8c0 18be
000000d0: c07b 08bd 8e0e 9e3e 7e7e 7ebd 1c35 60bc
000000e0: ae27 3ebd 2518 ac3e 8150 2f3c 7201 af3e
000000f0: 1466 06bf 8299 7dbe 5303 dabe a790 8e3b
00000100: 9c8b e4bc 4270 b93e a689 c73e c932 433d
00000110: 4e8b 0c3f 291f a23e 5139 c63e 677e 233d
00000120: b8a1 2cbc 6b44 a03e e2a7 743e ea19 9ebe
00000130: 0bfb 39be 2383 d9bd 5b06 1fbe bcc4 503e
00000140: b9eb ae3e 3f9e 0bbf d11f 1a3b 1673 ad3e
00000150: 61eb 543e 6521 6d3e 2beb 4fbc 5b51 a63e
00000160: 52fe 3bbe 58ec aa3e 809a 4d3e f2df a73e
00000170: 19c5 cb3e de93 943e dd3c c43e 1b24 093f
00000180: 25fa c93e 111b 663d facc d13c 53da 9ebc
00000190: 8dc6 9e3e e647 153d 889a 2e3e 37d1 ab3e
000001a0: 8520 663d 2108 59be ca50 febe faa5 fd3d
000001b0: 2f8c d63e 7f37 b03e ec88 3d3d 716d 513e
000001c0: e8cd 9abe 9244 ce3e 9f3c 963e 0386 003d
000001d0: ac62 a53e 21b2 ce3e 0627 a93e 09db 56be
000001e0: 3021 7ebd 9f8d bd3e e6b8 58bd e8ab f9be
000001f0: fcf6 babe a925 28bc 06a6 413d a1b2 e3be
00000200: 6cd8 9a3e e8ab d13c 2916 ac3e 48f8 4cbe
00000210: 8f20 983e 4b2c 49be a975 a53d 78f5 bc3e
00000220: 940b 2dbe c24f cb3e 9117 5ebc 9825 02bf
00000230: 6081 ef3d 16c6 8e3e e6c9 4b3c 1378 a03e
00000240: a512 1b3e bade 693e 90cd b33e 2cb7 c3b9
00000250: db5d 17bf 0d5c 9f3e ca60 50be c5b0 a13e
00000260: d8f6 84be f810 db3c 1fa6 843e 4691 e5bc
00000270: 394a c03e a878 dabe 313d 3bbf 2e4e 78bd
00000280: ea4c 9f3e 9f24 b83e 7e76 a13e 9717 973e
00000290: 471e 6a3c 04be 7a3d 2a4b ba3e bcd6 403d
000002a0: 12a3 b03e fcfe 38bc cfc1 4abc 8188 af3e
000002b0: 47b0 853e 82f3 a03e 2ae9 0b3e 8cd6 ae3e
000002c0: e731 33bd 3e08 85bd ee9c 3fbd 7aee 913e
000002d0: c1ed 94bd 6ff4 863e 1dc8 3bbd 30ac 83bd
000002e0: 4013 ce3c 2aff ab3e ff5e 87bc 433b a73e
000002f0: cb27 4ebf 4cdb c93e 83de 3bbf 6014 473b
00000300: 2ec3 b737 54a3 5a3e 5b4f 8a3e fc6d 913c
00000310: 03f5 cabe c760 933e 5988 2a3e 4edb 1e3c
00000320: d7a3 84be 0612 733e 162e c13e 8c73 0abe
00000330: d86c debc 1983 e63d fd73 883c 933f be3e
00000340: b0d9 903e 093c 66bd a974 e5bc 677b b33e
00000350: 4523 b03e 1fb7 c03e 197a 2fbd a80b a83e
00000360: bae6 09be c8cd 863e b2a5 1fbe e40c 9e3e
00000370: 0049 633e 2ba7 853e 9e73 413e b59d 86be
00000380: 2e7c 3a3e 730c 523d 68cc 79bd 1982 45bd
00000390: f6ce 913e e58a 55bd afa6 28bf ea5c 913e
000003a0: 4213 6abe 1015 34bf 4675 09bf 9247 b13e
000003b0: 3d87 b53e 859f 8f3e 2de0 f33e 3c79 963e
000003c0: cb94 37bf 8811 813e 977c ca3e 4787 46bd
000003d0: f846 a53e db06 ee3d 12c2 383e 5129 f8bd
000003e0: 6da2 34bd d544 873e d624 b73b 2012 a6be
000003f0: 49ec 11bf 0850 03bd 5cfe 85bd d0cd 16bf

layer3.bias f4 [2]
0.009387027 0.10198482
00000000: 0bcc 193c 6bdd d03d
